…
I0428 23:58:32.618705 16364 upgrade_proto.cpp:69] Successfully upgraded file specified using deprecated input fields.
W0428 23:58:32.618705 16364 upgrade_proto.cpp:71] Note that future Caffe releases will only support input layers and not input fields.
I0428 23:58:32.619701 16364 net.cpp:58] Initializing net from parameters: 
name: "ResNet50"
state {
  phase: TEST
  level: 0
}
layer {
  name: "input"
  type: "Input"
  top: "data"
  top: "im_info"
  input_param {
    shape {
      dim: 1
      dim: 3
      dim: 224
      dim: 224
    }
    shape {
      dim: 1
      dim: 3
    }
  }
}
layer {
  name: "conv1"
  type: "Convolution"
  bottom: "data"
  top: "conv1"
  param {
    lr_mult: 0
  }
  param {
    lr_mult: 0
  }
  convolution_param {
    num_output: 64
    pad: 3
    kernel_size: 7
    stride: 2
  }
}
layer {
  name: "bn_conv1"
  type: "BatchNorm"
  bottom: "conv1"
  top: "conv1"
  param {
    lr_mult: 0
    decay_mult: 0
  }
  param {
    lr_mult: 0
    decay_mult: 0
  }
  param {
    lr_mult: 0
    decay_mult: 0
  }
  batch_norm_param {
    use_global_stats: true
  }
}
layer {
  name: "scale_conv1"
  type: "Scale"
  bottom: "conv1"
  top: "conv1"
  param {
    lr_mult: 0
    decay_mult: 0
  }
  param {
    lr_mult: 0
    decay_mult: 0
  }
  scale_param {
    bias_term: true
  }
}
layer {
  name: "conv1_relu"
  type: "ReLU"
  bottom: "conv1"
  top: "conv1"
}
layer {
  name: "pool1"
  type: "Pooling"
  bottom: "conv1"
  top: "pool1"
  pooling_param {
    pool: MAX
    kernel_size: 3
    stride: 2
  }
}
layer {
  name: "res2a_branch1"
  type: "Convolution"
  bottom: "pool1"
  top: "res2a_branch1"
  param {
    lr_mult: 0
  }
  convolution_param {
    num_output: 256
    bias_term: false
    pad: 0
    kernel_size: 1
    stride: 1
  }
}
layer {
  name: "bn2a_branch1"
  type: "BatchNorm"
  bottom: "res2a_branch1"
  top: "res2a_branch1"
  param {
    lr_mult: 0
    decay_mult: 0
  }
  param {
    lr_mult: 0
    decay_mult: 0
  }
  param {
    lr_mult: 0
    decay_mult: 0
  }
  batch_norm_param {
    use_global_stats: true
  }
}
layer {
  name: "scale2a_branch1"
  type: "Scale"
  bottom: "res2a_branch1"
  top: "res2a_branch1"
  param {
    lr_mult: 0
    decay_mult: 0
  }
  param {
    lr_mult: 0
    decay_mult: 0
  }
  scale_param {
    bias_term: true
  }
}
layer {
  name: "res2a_branch2a"
  type: "Convolution"
  bottom: "pool1"
  top: "res2a_branch2a"
  param {
    lr_mult: 0
  }
  convolution_param {
    num_output: 64
    bias_term: false
    pad: 0
    kernel_size: 1
    stride: 1
  }
}
layer {
  name: "bn2a_branch2a"
  type: "BatchNorm"
  bottom: "res2a_branch2a"
  top: "res2a_branch2a"
  param {
    lr_mult: 0
    decay_mult: 0
  }
  param {
    lr_mult: 0
    decay_mult: 0
  }
  param {
    lr_mult: 0
    decay_mult: 0
  }
  batch_norm_param {
    use_global_stats: true
  }
}
layer {
  name: "scale2a_branch2a"
  type: "Scale"
  bottom: "res2a_branch2a"
  top: "res2a_branch2a"
  param {
    lr_mult: 0
    decay_mult: 0
  }
  param {
    lr_mult: 0
    decay_mult: 0
  }
  scale_param {
    bias_term: true
  }
}
layer {
  name: "res2a_branch2a_relu"
  type: "ReLU"
  bottom: "res2a_branch2a"
  top: "res2a_branch2a"
}
layer {
  name: "res2a_branch2b"
  type: "Convolution"
  bottom: "res2a_branch2a"
  top: "res2a_branch2b"
  param {
    lr_mult: 0
  }
  convolution_param {
    num_output: 64
    bias_term: false
    pad: 1
    kernel_size: 3
    stride: 1
  }
}
layer {
  name: "bn2a_branch2b"
  type: "BatchNorm"
  bottom: "res2a_branch2b"
  top: "res2a_branch2b"
  param {
    lr_mult: 0
    decay_mult: 0
  }
  param {
    lr_mult: 0
    decay_mult: 0
  }
  param {
    lr_mult: 0
    decay_mult: 0
  }
  batch_norm_param {
    use_global_stats: true
  }
}
layer {
  name: "scale2a_branch2b"
  type: "Scale"
  bottom: "res2a_branch2b"
  top: "res2a_branch2b"
  param {
    lr_mult: 0
    decay_mult: 0
  }
  param {
    lr_mult: 0
    decay_mult: 0
  }
  scale_param {
    bias_term: true
  }
}
layer {
  name: "res2a_branch2b_relu"
  type: "ReLU"
  bottom: "res2a_branch2b"
  top: "res2a_branch2b"
}
layer {
  name: "res2a_branch2c"
  type: "Convolution"
  bottom: "res2a_branch2b"
  top: "res2a_branch2c"
  param {
    lr_mult: 0
  }
  convolution_param {
    num_output: 256
    bias_term: false
    pad: 0
    kernel_size: 1
    stride: 1
  }
}
layer {
  name: "bn2a_branch2c"
  type: "BatchNorm"
  bottom: "res2a_branch2c"
  top: "res2a_branch2c"
  param {
    lr_mult: 0
    decay_mult: 0
  }
  param {
    lr_mult: 0
    decay_mult: 0
  }
  param {
    lr_mult: 0
    decay_mult: 0
  }
  batch_norm_param {
    use_global_stats: true
  }
}
layer {
  name: "scale2a_branch2c"
  type: "Scale"
  bottom: "res2a_branch2c"
  top: "res2a_branch2c"
  param {
    lr_mult: 0
    decay_mult: 0
  }
  param {
    lr_mult: 0
    decay_mult: 0
  }
  scale_param {
    bias_term: true
  }
}
layer {
  name: "res2a"
  type: "Eltwise"
  bottom: "res2a_branch1"
  bottom: "res2a_branch2c"
  top: "res2a"
}
layer {
  name: "res2a_relu"
  type: "ReLU"
  bottom: "res2a"
  top: "res2a"
}
layer {
  name: "res2b_branch2a"
  type: "Convolution"
  bottom: "res2a"
  top: "res2b_branch2a"
  param {
    lr_mult: 0
  }
  convolution_param {
    num_output: 64
    bias_term: false
    pad: 0
    kernel_size: 1
    stride: 1
  }
}
layer {
  name: "bn2b_branch2a"
  type: "BatchNorm"
  bottom: "res2b_branch2a"
  top: "res2b_branch2a"
  param {
    lr_mult: 0
    decay_mult: 0
  }
  param {
    lr_mult: 0
    decay_mult: 0
  }
  param {
    lr_mult: 0
    decay_mult: 0
  }
  batch_norm_param {
    use_global_stats: true
  }
}
layer {
  name: "scale2b_branch2a"
  type: "Scale"
  bottom: "res2b_branch2a"
  top: "res2b_branch2a"
  param {
    lr_mult: 0
    decay_mult: 0
  }
  param {
    lr_mult: 0
    decay_mult: 0
  }
  scale_param {
    bias_term: true
  }
}
layer {
  name: "res2b_branch2a_relu"
  type: "ReLU"
  bottom: "res2b_branch2a"
  top: "res2b_branch2a"
}
layer {
  name: "res2b_branch2b"
  type: "Convolution"
  bottom: "res2b_branch2a"
  top: "res2b_branch2b"
  param {
    lr_mult: 0
  }
  convolution_param {
    num_output: 64
    bias_term: false
    pad: 1
    kernel_size: 3
    stride: 1
  }
}
layer {
  name: "bn2b_branch2b"
  type: "BatchNorm"
  bottom: "res2b_branch2b"
  top: "res2b_branch2b"
  param {
    lr_mult: 0
    decay_mult: 0
  }
  param {
    lr_mult: 0
    decay_mult: 0
  }
  param {
    lr_mult: 0
    decay_mult: 0
  }
  batch_norm_param {
    use_global_stats: true
  }
}
layer {
  name: "scale2b_branch2b"
  type: "Scale"
  bottom: "res2b_branch2b"
  top: "res2b_branch2b"
  param {
    lr_mult: 0
    decay_mult: 0
  }
  param {
    lr_mult: 0
    decay_mult: 0
  }
  scale_param {
    bias_term: true
  }
}
layer {
  name: "res2b_branch2b_relu"
  type: "ReLU"
  bottom: "res2b_branch2b"
  top: "res2b_branch2b"
}
layer {
  name: "res2b_branch2c"
  type: "Convolution"
  bottom: "res2b_branch2b"
  top: "res2b_branch2c"
  param {
    lr_mult: 0
  }
  convolution_param {
    num_output: 256
    bias_term: false
    pad: 0
    kernel_size: 1
    stride: 1
  }
}
layer {
  name: "bn2b_branch2c"
  type: "BatchNorm"
  bottom: "res2b_branch2c"
  top: "res2b_branch2c"
  param {
    lr_mult: 0
    decay_mult: 0
  }
  param {
    lr_mult: 0
    decay_mult: 0
  }
  param {
    lr_mult: 0
    decay_mult: 0
  }
  batch_norm_param {
    use_global_stats: true
  }
}
layer {
  name: "scale2b_branch2c"
  type: "Scale"
  bottom: "res2b_branch2c"
  top: "res2b_branch2c"
  param {
    lr_mult: 0
    decay_mult: 0
  }
  param {
    lr_mult: 0
    decay_mult: 0
  }
  scale_param {
    bias_term: true
  }
}
layer {
  name: "res2b"
  type: "Eltwise"
  bottom: "res2a"
  bottom: "res2b_branch2c"
  top: "res2b"
}
layer {
  name: "res2b_relu"
  type: "ReLU"
  bottom: "res2b"
  top: "res2b"
}
layer {
  name: "res2c_branch2a"
  type: "Convolution"
  bottom: "res2b"
  top: "res2c_branch2a"
  param {
    lr_mult: 0
  }
  convolution_param {
    num_output: 64
    bias_term: false
    pad: 0
    kernel_size: 1
    stride: 1
  }
}
layer {
  name: "bn2c_branch2a"
  type: "BatchNorm"
  bottom: "res2c_branch2a"
  top: "res2c_branch2a"
  param {
    lr_mult: 0
    decay_mult: 0
  }
  param {
    lr_mult: 0
    decay_mult: 0
  }
  param {
    lr_mult: 0
    decay_mult: 0
  }
  batch_norm_param {
    use_global_stats: true
  }
}
layer {
  name: "scale2c_branch2a"
  type: "Scale"
  bottom: "res2c_branch2a"
  top: "res2c_branch2a"
  param {
    lr_mult: 0
    decay_mult: 0
  }
  param {
    lr_mult: 0
    decay_mult: 0
  }
  scale_param {
    bias_term: true
  }
}
layer {
  name: "res2c_branch2a_relu"
  type: "ReLU"
  bottom: "res2c_branch2a"
  top: "res2c_branch2a"
}
layer {
  name: "res2c_branch2b"
  type: "Convolution"
  bottom: "res2c_branch2a"
  top: "res2c_branch2b"
  param {
    lr_mult: 0
  }
  convolution_param {
    num_output: 64
    bias_term: false
    pad: 1
    kernel_size: 3
    stride: 1
  }
}
layer {
  name: "bn2c_branch2b"
  type: "BatchNorm"
  bottom: "res2c_branch2b"
  top: "res2c_branch2b"
  param {
    lr_mult: 0
    decay_mult: 0
  }
  param {
    lr_mult: 0
    decay_mult: 0
  }
  param {
    lr_mult: 0
    decay_mult: 0
  }
  batch_norm_param {
    use_global_stats: true
  }
}
layer {
  name: "scale2c_branch2b"
  type: "Scale"
  bottom: "res2c_branch2b"
  top: "res2c_branch2b"
  param {
    lr_mult: 0
    decay_mult: 0
  }
  param {
    lr_mult: 0
    decay_mult: 0
  }
  scale_param {
    bias_term: true
  }
}
layer {
  name: "res2c_branch2b_relu"
  type: "ReLU"
  bottom: "res2c_branch2b"
  top: "res2c_branch2b"
}
layer {
  name: "res2c_branch2c"
  type: "Convolution"
  bottom: "res2c_branch2b"
  top: "res2c_branch2c"
  param {
    lr_mult: 0
  }
  convolution_param {
    num_output: 256
    bias_term: false
    pad: 0
    kernel_size: 1
    stride: 1
  }
}
layer {
  name: "bn2c_branch2c"
  type: "BatchNorm"
  bottom: "res2c_branch2c"
  top: "res2c_branch2c"
  param {
    lr_mult: 0
    decay_mult: 0
  }
  param {
    lr_mult: 0
    decay_mult: 0
  }
  param {
    lr_mult: 0
    decay_mult: 0
  }
  batch_norm_param {
    use_global_stats: true
  }
}
layer {
  name: "scale2c_branch2c"
  type: "Scale"
  bottom: "res2c_branch2c"
  top: "res2c_branch2c"
  param {
    lr_mult: 0
    decay_mult: 0
  }
  param {
    lr_mult: 0
    decay_mult: 0
  }
  scale_param {
    bias_term: true
  }
}
layer {
  name: "res2c"
  type: "Eltwise"
  bottom: "res2b"
  bottom: "res2c_branch2c"
  top: "res2c"
}
layer {
  name: "res2c_relu"
  type: "ReLU"
  bottom: "res2c"
  top: "res2c"
}
layer {
  name: "res3a_branch1"
  type: "Convolution"
  bottom: "res2c"
  top: "res3a_branch1"
  param {
    lr_mult: 1
  }
  convolution_param {
    num_output: 512
    bias_term: false
    pad: 0
    kernel_size: 1
    stride: 2
  }
}
layer {
  name: "bn3a_branch1"
  type: "BatchNorm"
  bottom: "res3a_branch1"
  top: "res3a_branch1"
  param {
    lr_mult: 0
    decay_mult: 0
  }
  param {
    lr_mult: 0
    decay_mult: 0
  }
  param {
    lr_mult: 0
    decay_mult: 0
  }
  batch_norm_param {
    use_global_stats: true
  }
}
layer {
  name: "scale3a_branch1"
  type: "Scale"
  bottom: "res3a_branch1"
  top: "res3a_branch1"
  param {
    lr_mult: 0
    decay_mult: 0
  }
  param {
    lr_mult: 0
    decay_mult: 0
  }
  scale_param {
    bias_term: true
  }
}
layer {
  name: "res3a_branch2a"
  type: "Convolution"
  bottom: "res2c"
  top: "res3a_branch2a"
  param {
    lr_mult: 1
  }
  convolution_param {
    num_output: 128
    bias_term: false
    pad: 0
    kernel_size: 1
    stride: 2
  }
}
layer {
  name: "bn3a_branch2a"
  type: "BatchNorm"
  bottom: "res3a_branch2a"
  top: "res3a_branch2a"
  param {
    lr_mult: 0
    decay_mult: 0
  }
  param {
    lr_mult: 0
    decay_mult: 0
  }
  param {
    lr_mult: 0
    decay_mult: 0
  }
  batch_norm_param {
    use_global_stats: true
  }
}
layer {
  name: "scale3a_branch2a"
  type: "Scale"
  bottom: "res3a_branch2a"
  top: "res3a_branch2a"
  param {
    lr_mult: 0
    decay_mult: 0
  }
  param {
    lr_mult: 0
    decay_mult: 0
  }
  scale_param {
    bias_term: true
  }
}
layer {
  name: "res3a_branch2a_relu"
  type: "ReLU"
  bottom: "res3a_branch2a"
  top: "res3a_branch2a"
}
layer {
  name: "res3a_branch2b"
  type: "Convolution"
  bottom: "res3a_branch2a"
  top: "res3a_branch2b"
  param {
    lr_mult: 1
  }
  convolution_param {
    num_output: 128
    bias_term: false
    pad: 1
    kernel_size: 3
    stride: 1
  }
}
layer {
  name: "bn3a_branch2b"
  type: "BatchNorm"
  bottom: "res3a_branch2b"
  top: "res3a_branch2b"
  param {
    lr_mult: 0
    decay_mult: 0
  }
  param {
    lr_mult: 0
    decay_mult: 0
  }
  param {
    lr_mult: 0
    decay_mult: 0
  }
  batch_norm_param {
    use_global_stats: true
  }
}
layer {
  name: "scale3a_branch2b"
  type: "Scale"
  bottom: "res3a_branch2b"
  top: "res3a_branch2b"
  param {
    lr_mult: 0
    decay_mult: 0
  }
  param {
    lr_mult: 0
    decay_mult: 0
  }
  scale_param {
    bias_term: true
  }
}
layer {
  name: "res3a_branch2b_relu"
  type: "ReLU"
  bottom: "res3a_branch2b"
  top: "res3a_branch2b"
}
layer {
  name: "res3a_branch2c"
  type: "Convolution"
  bottom: "res3a_branch2b"
  top: "res3a_branch2c"
  param {
    lr_mult: 1
  }
  convolution_param {
    num_output: 512
    bias_term: false
    pad: 0
    kernel_size: 1
    stride: 1
  }
}
layer {
  name: "bn3a_branch2c"
  type: "BatchNorm"
  bottom: "res3a_branch2c"
  top: "res3a_branch2c"
  param {
    lr_mult: 0
    decay_mult: 0
  }
  param {
    lr_mult: 0
    decay_mult: 0
  }
  param {
    lr_mult: 0
    decay_mult: 0
  }
  batch_norm_param {
    use_global_stats: true
  }
}
layer {
  name: "scale3a_branch2c"
  type: "Scale"
  bottom: "res3a_branch2c"
  top: "res3a_branch2c"
  param {
    lr_mult: 0
    decay_mult: 0
  }
  param {
    lr_mult: 0
    decay_mult: 0
  }
  scale_param {
    bias_term: true
  }
}
layer {
  name: "res3a"
  type: "Eltwise"
  bottom: "res3a_branch1"
  bottom: "res3a_branch2c"
  top: "res3a"
}
layer {
  name: "res3a_relu"
  type: "ReLU"
  bottom: "res3a"
  top: "res3a"
}
layer {
  name: "res3b_branch2a"
  type: "Convolution"
  bottom: "res3a"
  top: "res3b_branch2a"
  param {
    lr_mult: 1
  }
  convolution_param {
    num_output: 128
    bias_term: false
    pad: 0
    kernel_size: 1
    stride: 1
  }
}
layer {
  name: "bn3b_branch2a"
  type: "BatchNorm"
  bottom: "res3b_branch2a"
  top: "res3b_branch2a"
  param {
    lr_mult: 0
    decay_mult: 0
  }
  param {
    lr_mult: 0
    decay_mult: 0
  }
  param {
    lr_mult: 0
    decay_mult: 0
  }
  batch_norm_param {
    use_global_stats: true
  }
}
layer {
  name: "scale3b_branch2a"
  type: "Scale"
  bottom: "res3b_branch2a"
  top: "res3b_branch2a"
  param {
    lr_mult: 0
    decay_mult: 0
  }
  param {
    lr_mult: 0
    decay_mult: 0
  }
  scale_param {
    bias_term: true
  }
}
layer {
  name: "res3b_branch2a_relu"
  type: "ReLU"
  bottom: "res3b_branch2a"
  top: "res3b_branch2a"
}
layer {
  name: "res3b_branch2b"
  type: "Convolution"
  bottom: "res3b_branch2a"
  top: "res3b_branch2b"
  param {
    lr_mult: 1
  }
  convolution_param {
    num_output: 128
    bias_term: false
    pad: 1
    kernel_size: 3
    stride: 1
  }
}
layer {
  name: "bn3b_branch2b"
  type: "BatchNorm"
  bottom: "res3b_branch2b"
  top: "res3b_branch2b"
  param {
    lr_mult: 0
    decay_mult: 0
  }
  param {
    lr_mult: 0
    decay_mult: 0
  }
  param {
    lr_mult: 0
    decay_mult: 0
  }
  batch_norm_param {
    use_global_stats: true
  }
}
layer {
  name: "scale3b_branch2b"
  type: "Scale"
  bottom: "res3b_branch2b"
  top: "res3b_branch2b"
  param {
    lr_mult: 0
    decay_mult: 0
  }
  param {
    lr_mult: 0
    decay_mult: 0
  }
  scale_param {
    bias_term: true
  }
}
layer {
  name: "res3b_branch2b_relu"
  type: "ReLU"
  bottom: "res3b_branch2b"
  top: "res3b_branch2b"
}
layer {
  name: "res3b_branch2c"
  type: "Convolution"
  bottom: "res3b_branch2b"
  top: "res3b_branch2c"
  param {
    lr_mult: 1
  }
  convolution_param {
    num_output: 512
    bias_term: false
    pad: 0
    kernel_size: 1
    stride: 1
  }
}
layer {
  name: "bn3b_branch2c"
  type: "BatchNorm"
  bottom: "res3b_branch2c"
  top: "res3b_branch2c"
  param {
    lr_mult: 0
    decay_mult: 0
  }
  param {
    lr_mult: 0
    decay_mult: 0
  }
  param {
    lr_mult: 0
    decay_mult: 0
  }
  batch_norm_param {
    use_global_stats: true
  }
}
layer {
  name: "scale3b_branch2c"
  type: "Scale"
  bottom: "res3b_branch2c"
  top: "res3b_branch2c"
  param {
    lr_mult: 0
    decay_mult: 0
  }
  param {
    lr_mult: 0
    decay_mult: 0
  }
  scale_param {
    bias_term: true
  }
}
layer {
  name: "res3b"
  type: "Eltwise"
  bottom: "res3a"
  bottom: "res3b_branch2c"
  top: "res3b"
}
layer {
  name: "res3b_relu"
  type: "ReLU"
  bottom: "res3b"
  top: "res3b"
}
layer {
  name: "res3c_branch2a"
  type: "Convolution"
  bottom: "res3b"
  top: "res3c_branch2a"
  param {
    lr_mult: 1
  }
  convolution_param {
    num_output: 128
    bias_term: false
    pad: 0
    kernel_size: 1
    stride: 1
  }
}
layer {
  name: "bn3c_branch2a"
  type: "BatchNorm"
  bottom: "res3c_branch2a"
  top: "res3c_branch2a"
  param {
    lr_mult: 0
    decay_mult: 0
  }
  param {
    lr_mult: 0
    decay_mult: 0
  }
  param {
    lr_mult: 0
    decay_mult: 0
  }
  batch_norm_param {
    use_global_stats: true
  }
}
layer {
  name: "scale3c_branch2a"
  type: "Scale"
  bottom: "res3c_branch2a"
  top: "res3c_branch2a"
  param {
    lr_mult: 0
    decay_mult: 0
  }
  param {
    lr_mult: 0
    decay_mult: 0
  }
  scale_param {
    bias_term: true
  }
}
layer {
  name: "res3c_branch2a_relu"
  type: "ReLU"
  bottom: "res3c_branch2a"
  top: "res3c_branch2a"
}
layer {
  name: "res3c_branch2b"
  type: "Convolution"
  bottom: "res3c_branch2a"
  top: "res3c_branch2b"
  param {
    lr_mult: 1
  }
  convolution_param {
    num_output: 128
    bias_term: false
    pad: 1
    kernel_size: 3
    stride: 1
  }
}
layer {
  name: "bn3c_branch2b"
  type: "BatchNorm"
  bottom: "res3c_branch2b"
  top: "res3c_branch2b"
  param {
    lr_mult: 0
    decay_mult: 0
  }
  param {
    lr_mult: 0
    decay_mult: 0
  }
  param {
    lr_mult: 0
    decay_mult: 0
  }
  batch_norm_param {
    use_global_stats: true
  }
}
layer {
  name: "scale3c_branch2b"
  type: "Scale"
  bottom: "res3c_branch2b"
  top: "res3c_branch2b"
  param {
    lr_mult: 0
    decay_mult: 0
  }
  param {
    lr_mult: 0
    decay_mult: 0
  }
  scale_param {
    bias_term: true
  }
}
layer {
  name: "res3c_branch2b_relu"
  type: "ReLU"
  bottom: "res3c_branch2b"
  top: "res3c_branch2b"
}
layer {
  name: "res3c_branch2c"
  type: "Convolution"
  bottom: "res3c_branch2b"
  top: "res3c_branch2c"
  param {
    lr_mult: 1
  }
  convolution_param {
    num_output: 512
    bias_term: false
    pad: 0
    kernel_size: 1
    stride: 1
  }
}
layer {
  name: "bn3c_branch2c"
  type: "BatchNorm"
  bottom: "res3c_branch2c"
  top: "res3c_branch2c"
  param {
    lr_mult: 0
    decay_mult: 0
  }
  param {
    lr_mult: 0
    decay_mult: 0
  }
  param {
    lr_mult: 0
    decay_mult: 0
  }
  batch_norm_param {
    use_global_stats: true
  }
}
layer {
  name: "scale3c_branch2c"
  type: "Scale"
  bottom: "res3c_branch2c"
  top: "res3c_branch2c"
  param {
    lr_mult: 0
    decay_mult: 0
  }
  param {
    lr_mult: 0
    decay_mult: 0
  }
  scale_param {
    bias_term: true
  }
}
layer {
  name: "res3c"
  type: "Eltwise"
  bottom: "res3b"
  bottom: "res3c_branch2c"
  top: "res3c"
}
layer {
  name: "res3c_relu"
  type: "ReLU"
  bottom: "res3c"
  top: "res3c"
}
layer {
  name: "res3d_branch2a"
  type: "Convolution"
  bottom: "res3c"
  top: "res3d_branch2a"
  param {
    lr_mult: 1
  }
  convolution_param {
    num_output: 128
    bias_term: false
    pad: 0
    kernel_size: 1
    stride: 1
  }
}
layer {
  name: "bn3d_branch2a"
  type: "BatchNorm"
  bottom: "res3d_branch2a"
  top: "res3d_branch2a"
  param {
    lr_mult: 0
    decay_mult: 0
  }
  param {
    lr_mult: 0
    decay_mult: 0
  }
  param {
    lr_mult: 0
    decay_mult: 0
  }
  batch_norm_param {
    use_global_stats: true
  }
}
layer {
  name: "scale3d_branch2a"
  type: "Scale"
  bottom: "res3d_branch2a"
  top: "res3d_branch2a"
  param {
    lr_mult: 0
    decay_mult: 0
  }
  param {
    lr_mult: 0
    decay_mult: 0
  }
  scale_param {
    bias_term: true
  }
}
layer {
  name: "res3d_branch2a_relu"
  type: "ReLU"
  bottom: "res3d_branch2a"
  top: "res3d_branch2a"
}
layer {
  name: "res3d_branch2b"
  type: "Convolution"
  bottom: "res3d_branch2a"
  top: "res3d_branch2b"
  param {
    lr_mult: 1
  }
  convolution_param {
    num_output: 128
    bias_term: false
    pad: 1
    kernel_size: 3
    stride: 1
  }
}
layer {
  name: "bn3d_branch2b"
  type: "BatchNorm"
  bottom: "res3d_branch2b"
  top: "res3d_branch2b"
  param {
    lr_mult: 0
    decay_mult: 0
  }
  param {
    lr_mult: 0
    decay_mult: 0
  }
  param {
    lr_mult: 0
    decay_mult: 0
  }
  batch_norm_param {
    use_global_stats: true
  }
}
layer {
  name: "scale3d_branch2b"
  type: "Scale"
  bottom: "res3d_branch2b"
  top: "res3d_branch2b"
  param {
    lr_mult: 0
    decay_mult: 0
  }
  param {
    lr_mult: 0
    decay_mult: 0
  }
  scale_param {
    bias_term: true
  }
}
layer {
  name: "res3d_branch2b_relu"
  type: "ReLU"
  bottom: "res3d_branch2b"
  top: "res3d_branch2b"
}
layer {
  name: "res3d_branch2c"
  type: "Convolution"
  bottom: "res3d_branch2b"
  top: "res3d_branch2c"
  param {
    lr_mult: 1
  }
  convolution_param {
    num_output: 512
    bias_term: false
    pad: 0
    kernel_size: 1
    stride: 1
  }
}
layer {
  name: "bn3d_branch2c"
  type: "BatchNorm"
  bottom: "res3d_branch2c"
  top: "res3d_branch2c"
  param {
    lr_mult: 0
    decay_mult: 0
  }
  param {
    lr_mult: 0
    decay_mult: 0
  }
  param {
    lr_mult: 0
    decay_mult: 0
  }
  batch_norm_param {
    use_global_stats: true
  }
}
layer {
  name: "scale3d_branch2c"
  type: "Scale"
  bottom: "res3d_branch2c"
  top: "res3d_branch2c"
  param {
    lr_mult: 0
    decay_mult: 0
  }
  param {
    lr_mult: 0
    decay_mult: 0
  }
  scale_param {
    bias_term: true
  }
}
layer {
  name: "res3d"
  type: "Eltwise"
  bottom: "res3c"
  bottom: "res3d_branch2c"
  top: "res3d"
}
layer {
  name: "res3d_relu"
  type: "ReLU"
  bottom: "res3d"
  top: "res3d"
}
layer {
  name: "res4a_branch1"
  type: "Convolution"
  bottom: "res3d"
  top: "res4a_branch1"
  param {
    lr_mult: 1
  }
  convolution_param {
    num_output: 1024
    bias_term: false
    pad: 0
    kernel_size: 1
    stride: 2
  }
}
layer {
  name: "bn4a_branch1"
  type: "BatchNorm"
  bottom: "res4a_branch1"
  top: "res4a_branch1"
  param {
    lr_mult: 0
    decay_mult: 0
  }
  param {
    lr_mult: 0
    decay_mult: 0
  }
  param {
    lr_mult: 0
    decay_mult: 0
  }
  batch_norm_param {
    use_global_stats: true
  }
}
layer {
  name: "scale4a_branch1"
  type: "Scale"
  bottom: "res4a_branch1"
  top: "res4a_branch1"
  param {
    lr_mult: 0
    decay_mult: 0
  }
  param {
    lr_mult: 0
    decay_mult: 0
  }
  scale_param {
    bias_term: true
  }
}
layer {
  name: "res4a_branch2a"
  type: "Convolution"
  bottom: "res3d"
  top: "res4a_branch2a"
  param {
    lr_mult: 1
  }
  convolution_param {
    num_output: 256
    bias_term: false
    pad: 0
    kernel_size: 1
    stride: 2
  }
}
layer {
  name: "bn4a_branch2a"
  type: "BatchNorm"
  bottom: "res4a_branch2a"
  top: "res4a_branch2a"
  param {
    lr_mult: 0
    decay_mult: 0
  }
  param {
    lr_mult: 0
    decay_mult: 0
  }
  param {
    lr_mult: 0
    decay_mult: 0
  }
  batch_norm_param {
    use_global_stats: true
  }
}
layer {
  name: "scale4a_branch2a"
  type: "Scale"
  bottom: "res4a_branch2a"
  top: "res4a_branch2a"
  param {
    lr_mult: 0
    decay_mult: 0
  }
  param {
    lr_mult: 0
    decay_mult: 0
  }
  scale_param {
    bias_term: true
  }
}
layer {
  name: "res4a_branch2a_relu"
  type: "ReLU"
  bottom: "res4a_branch2a"
  top: "res4a_branch2a"
}
layer {
  name: "res4a_branch2b"
  type: "Convolution"
  bottom: "res4a_branch2a"
  top: "res4a_branch2b"
  param {
    lr_mult: 1
  }
  convolution_param {
    num_output: 256
    bias_term: false
    pad: 1
    kernel_size: 3
    stride: 1
  }
}
layer {
  name: "bn4a_branch2b"
  type: "BatchNorm"
  bottom: "res4a_branch2b"
  top: "res4a_branch2b"
  param {
    lr_mult: 0
    decay_mult: 0
  }
  param {
    lr_mult: 0
    decay_mult: 0
  }
  param {
    lr_mult: 0
    decay_mult: 0
  }
  batch_norm_param {
    use_global_stats: true
  }
}
layer {
  name: "scale4a_branch2b"
  type: "Scale"
  bottom: "res4a_branch2b"
  top: "res4a_branch2b"
  param {
    lr_mult: 0
    decay_mult: 0
  }
  param {
    lr_mult: 0
    decay_mult: 0
  }
  scale_param {
    bias_term: true
  }
}
layer {
  name: "res4a_branch2b_relu"
  type: "ReLU"
  bottom: "res4a_branch2b"
  top: "res4a_branch2b"
}
layer {
  name: "res4a_branch2c"
  type: "Convolution"
  bottom: "res4a_branch2b"
  top: "res4a_branch2c"
  param {
    lr_mult: 1
  }
  convolution_param {
    num_output: 1024
    bias_term: false
    pad: 0
    kernel_size: 1
    stride: 1
  }
}
layer {
  name: "bn4a_branch2c"
  type: "BatchNorm"
  bottom: "res4a_branch2c"
  top: "res4a_branch2c"
  param {
    lr_mult: 0
    decay_mult: 0
  }
  param {
    lr_mult: 0
    decay_mult: 0
  }
  param {
    lr_mult: 0
    decay_mult: 0
  }
  batch_norm_param {
    use_global_stats: true
  }
}
layer {
  name: "scale4a_branch2c"
  type: "Scale"
  bottom: "res4a_branch2c"
  top: "res4a_branch2c"
  param {
    lr_mult: 0
    decay_mult: 0
  }
  param {
    lr_mult: 0
    decay_mult: 0
  }
  scale_param {
    bias_term: true
  }
}
layer {
  name: "res4a"
  type: "Eltwise"
  bottom: "res4a_branch1"
  bottom: "res4a_branch2c"
  top: "res4a"
}
layer {
  name: "res4a_relu"
  type: "ReLU"
  bottom: "res4a"
  top: "res4a"
}
layer {
  name: "res4b_branch2a"
  type: "Convolution"
  bottom: "res4a"
  top: "res4b_branch2a"
  param {
    lr_mult: 1
  }
  convolution_param {
    num_output: 256
    bias_term: false
    pad: 0
    kernel_size: 1
    stride: 1
  }
}
layer {
  name: "bn4b_branch2a"
  type: "BatchNorm"
  bottom: "res4b_branch2a"
  top: "res4b_branch2a"
  param {
    lr_mult: 0
    decay_mult: 0
  }
  param {
    lr_mult: 0
    decay_mult: 0
  }
  param {
    lr_mult: 0
    decay_mult: 0
  }
  batch_norm_param {
    use_global_stats: true
  }
}
layer {
  name: "scale4b_branch2a"
  type: "Scale"
  bottom: "res4b_branch2a"
  top: "res4b_branch2a"
  param {
    lr_mult: 0
    decay_mult: 0
  }
  param {
    lr_mult: 0
    decay_mult: 0
  }
  scale_param {
    bias_term: true
  }
}
layer {
  name: "res4b_branch2a_relu"
  type: "ReLU"
  bottom: "res4b_branch2a"
  top: "res4b_branch2a"
}
layer {
  name: "res4b_branch2b"
  type: "Convolution"
  bottom: "res4b_branch2a"
  top: "res4b_branch2b"
  param {
    lr_mult: 1
  }
  convolution_param {
    num_output: 256
    bias_term: false
    pad: 1
    kernel_size: 3
    stride: 1
  }
}
layer {
  name: "bn4b_branch2b"
  type: "BatchNorm"
  bottom: "res4b_branch2b"
  top: "res4b_branch2b"
  param {
    lr_mult: 0
    decay_mult: 0
  }
  param {
    lr_mult: 0
    decay_mult: 0
  }
  param {
    lr_mult: 0
    decay_mult: 0
  }
  batch_norm_param {
    use_global_stats: true
  }
}
layer {
  name: "scale4b_branch2b"
  type: "Scale"
  bottom: "res4b_branch2b"
  top: "res4b_branch2b"
  param {
    lr_mult: 0
    decay_mult: 0
  }
  param {
    lr_mult: 0
    decay_mult: 0
  }
  scale_param {
    bias_term: true
  }
}
layer {
  name: "res4b_branch2b_relu"
  type: "ReLU"
  bottom: "res4b_branch2b"
  top: "res4b_branch2b"
}
layer {
  name: "res4b_branch2c"
  type: "Convolution"
  bottom: "res4b_branch2b"
  top: "res4b_branch2c"
  param {
    lr_mult: 1
  }
  convolution_param {
    num_output: 1024
    bias_term: false
    pad: 0
    kernel_size: 1
    stride: 1
  }
}
layer {
  name: "bn4b_branch2c"
  type: "BatchNorm"
  bottom: "res4b_branch2c"
  top: "res4b_branch2c"
  param {
    lr_mult: 0
    decay_mult: 0
  }
  param {
    lr_mult: 0
    decay_mult: 0
  }
  param {
    lr_mult: 0
    decay_mult: 0
  }
  batch_norm_param {
    use_global_stats: true
  }
}
layer {
  name: "scale4b_branch2c"
  type: "Scale"
  bottom: "res4b_branch2c"
  top: "res4b_branch2c"
  param {
    lr_mult: 0
    decay_mult: 0
  }
  param {
    lr_mult: 0
    decay_mult: 0
  }
  scale_param {
    bias_term: true
  }
}
layer {
  name: "res4b"
  type: "Eltwise"
  bottom: "res4a"
  bottom: "res4b_branch2c"
  top: "res4b"
}
layer {
  name: "res4b_relu"
  type: "ReLU"
  bottom: "res4b"
  top: "res4b"
}
layer {
  name: "res4c_branch2a"
  type: "Convolution"
  bottom: "res4b"
  top: "res4c_branch2a"
  param {
    lr_mult: 1
  }
  convolution_param {
    num_output: 256
    bias_term: false
    pad: 0
    kernel_size: 1
    stride: 1
  }
}
layer {
  name: "bn4c_branch2a"
  type: "BatchNorm"
  bottom: "res4c_branch2a"
  top: "res4c_branch2a"
  param {
    lr_mult: 0
    decay_mult: 0
  }
  param {
    lr_mult: 0
    decay_mult: 0
  }
  param {
    lr_mult: 0
    decay_mult: 0
  }
  batch_norm_param {
    use_global_stats: true
  }
}
layer {
  name: "scale4c_branch2a"
  type: "Scale"
  bottom: "res4c_branch2a"
  top: "res4c_branch2a"
  param {
    lr_mult: 0
    decay_mult: 0
  }
  param {
    lr_mult: 0
    decay_mult: 0
  }
  scale_param {
    bias_term: true
  }
}
layer {
  name: "res4c_branch2a_relu"
  type: "ReLU"
  bottom: "res4c_branch2a"
  top: "res4c_branch2a"
}
layer {
  name: "res4c_branch2b"
  type: "Convolution"
  bottom: "res4c_branch2a"
  top: "res4c_branch2b"
  param {
    lr_mult: 1
  }
  convolution_param {
    num_output: 256
    bias_term: false
    pad: 1
    kernel_size: 3
    stride: 1
  }
}
layer {
  name: "bn4c_branch2b"
  type: "BatchNorm"
  bottom: "res4c_branch2b"
  top: "res4c_branch2b"
  param {
    lr_mult: 0
    decay_mult: 0
  }
  param {
    lr_mult: 0
    decay_mult: 0
  }
  param {
    lr_mult: 0
    decay_mult: 0
  }
  batch_norm_param {
    use_global_stats: true
  }
}
layer {
  name: "scale4c_branch2b"
  type: "Scale"
  bottom: "res4c_branch2b"
  top: "res4c_branch2b"
  param {
    lr_mult: 0
    decay_mult: 0
  }
  param {
    lr_mult: 0
    decay_mult: 0
  }
  scale_param {
    bias_term: true
  }
}
layer {
  name: "res4c_branch2b_relu"
  type: "ReLU"
  bottom: "res4c_branch2b"
  top: "r
I0428 23:58:32.620718 16364 layer_factory.hpp:77] Creating layer input
I0428 23:58:32.620718 16364 net.cpp:100] Creating Layer input
I0428 23:58:32.620718 16364 net.cpp:418] input -> data
I0428 23:58:32.620718 16364 net.cpp:418] input -> im_info
I0428 23:58:32.620718 16364 net.cpp:150] Setting up input
I0428 23:58:32.620718 16364 net.cpp:157] Top shape: 1 3 224 224 (150528)
I0428 23:58:32.620718 16364 net.cpp:157] Top shape: 1 3 (3)
I0428 23:58:32.620718 16364 net.cpp:165] Memory required for data: 602124
I0428 23:58:32.620718 16364 layer_factory.hpp:77] Creating layer conv1
I0428 23:58:32.620718 16364 net.cpp:100] Creating Layer conv1
I0428 23:58:32.620718 16364 net.cpp:444] conv1 <- data
I0428 23:58:32.620718 16364 net.cpp:418] conv1 -> conv1
I0428 23:58:32.887984 16364 net.cpp:150] Setting up conv1
I0428 23:58:32.887984 16364 net.cpp:157] Top shape: 1 64 112 112 (802816)
I0428 23:58:32.887984 16364 net.cpp:165] Memory required for data: 3813388
I0428 23:58:32.887984 16364 layer_factory.hpp:77] Creating layer bn_conv1
I0428 23:58:32.887984 16364 net.cpp:100] Creating Layer bn_conv1
I0428 23:58:32.887984 16364 net.cpp:444] bn_conv1 <- conv1
I0428 23:58:32.887984 16364 net.cpp:405] bn_conv1 -> conv1 (in-place)
I0428 23:58:32.887984 16364 net.cpp:150] Setting up bn_conv1
I0428 23:58:32.887984 16364 net.cpp:157] Top shape: 1 64 112 112 (802816)
I0428 23:58:32.887984 16364 net.cpp:165] Memory required for data: 7024652
I0428 23:58:32.887984 16364 layer_factory.hpp:77] Creating layer scale_conv1
I0428 23:58:32.887984 16364 net.cpp:100] Creating Layer scale_conv1
I0428 23:58:32.887984 16364 net.cpp:444] scale_conv1 <- conv1
I0428 23:58:32.887984 16364 net.cpp:405] scale_conv1 -> conv1 (in-place)
I0428 23:58:32.887984 16364 layer_factory.hpp:77] Creating layer scale_conv1
I0428 23:58:32.887984 16364 net.cpp:150] Setting up scale_conv1
I0428 23:58:32.887984 16364 net.cpp:157] Top shape: 1 64 112 112 (802816)
I0428 23:58:32.887984 16364 net.cpp:165] Memory required for data: 10235916
I0428 23:58:32.887984 16364 layer_factory.hpp:77] Creating layer conv1_relu
I0428 23:58:32.887984 16364 net.cpp:100] Creating Layer conv1_relu
I0428 23:58:32.887984 16364 net.cpp:444] conv1_relu <- conv1
I0428 23:58:32.887984 16364 net.cpp:405] conv1_relu -> conv1 (in-place)
I0428 23:58:32.887984 16364 net.cpp:150] Setting up conv1_relu
I0428 23:58:32.887984 16364 net.cpp:157] Top shape: 1 64 112 112 (802816)
I0428 23:58:32.887984 16364 net.cpp:165] Memory required for data: 13447180
I0428 23:58:32.887984 16364 layer_factory.hpp:77] Creating layer pool1
I0428 23:58:32.887984 16364 net.cpp:100] Creating Layer pool1
I0428 23:58:32.887984 16364 net.cpp:444] pool1 <- conv1
I0428 23:58:32.887984 16364 net.cpp:418] pool1 -> pool1
I0428 23:58:32.887984 16364 net.cpp:150] Setting up pool1
I0428 23:58:32.888981 16364 net.cpp:157] Top shape: 1 64 56 56 (200704)
I0428 23:58:32.888981 16364 net.cpp:165] Memory required for data: 14249996
I0428 23:58:32.888981 16364 layer_factory.hpp:77] Creating layer pool1_pool1_0_split
I0428 23:58:32.888981 16364 net.cpp:100] Creating Layer pool1_pool1_0_split
I0428 23:58:32.888981 16364 net.cpp:444] pool1_pool1_0_split <- pool1
I0428 23:58:32.888981 16364 net.cpp:418] pool1_pool1_0_split -> pool1_pool1_0_split_0
I0428 23:58:32.888981 16364 net.cpp:418] pool1_pool1_0_split -> pool1_pool1_0_split_1
I0428 23:58:32.888981 16364 net.cpp:150] Setting up pool1_pool1_0_split
I0428 23:58:32.888981 16364 net.cpp:157] Top shape: 1 64 56 56 (200704)
I0428 23:58:32.888981 16364 net.cpp:157] Top shape: 1 64 56 56 (200704)
I0428 23:58:32.888981 16364 net.cpp:165] Memory required for data: 15855628
I0428 23:58:32.888981 16364 layer_factory.hpp:77] Creating layer res2a_branch1
I0428 23:58:32.888981 16364 net.cpp:100] Creating Layer res2a_branch1
I0428 23:58:32.888981 16364 net.cpp:444] res2a_branch1 <- pool1_pool1_0_split_0
I0428 23:58:32.888981 16364 net.cpp:418] res2a_branch1 -> res2a_branch1
I0428 23:58:32.889978 16364 net.cpp:150] Setting up res2a_branch1
I0428 23:58:32.889978 16364 net.cpp:157] Top shape: 1 256 56 56 (802816)
I0428 23:58:32.889978 16364 net.cpp:165] Memory required for data: 19066892
I0428 23:58:32.889978 16364 layer_factory.hpp:77] Creating layer bn2a_branch1
I0428 23:58:32.889978 16364 net.cpp:100] Creating Layer bn2a_branch1
I0428 23:58:32.889978 16364 net.cpp:444] bn2a_branch1 <- res2a_branch1
I0428 23:58:32.889978 16364 net.cpp:405] bn2a_branch1 -> res2a_branch1 (in-place)
I0428 23:58:32.889978 16364 net.cpp:150] Setting up bn2a_branch1
I0428 23:58:32.889978 16364 net.cpp:157] Top shape: 1 256 56 56 (802816)
I0428 23:58:32.889978 16364 net.cpp:165] Memory required for data: 22278156
I0428 23:58:32.889978 16364 layer_factory.hpp:77] Creating layer scale2a_branch1
I0428 23:58:32.889978 16364 net.cpp:100] Creating Layer scale2a_branch1
I0428 23:58:32.889978 16364 net.cpp:444] scale2a_branch1 <- res2a_branch1
I0428 23:58:32.889978 16364 net.cpp:405] scale2a_branch1 -> res2a_branch1 (in-place)
I0428 23:58:32.889978 16364 layer_factory.hpp:77] Creating layer scale2a_branch1
I0428 23:58:32.889978 16364 net.cpp:150] Setting up scale2a_branch1
I0428 23:58:32.889978 16364 net.cpp:157] Top shape: 1 256 56 56 (802816)
I0428 23:58:32.889978 16364 net.cpp:165] Memory required for data: 25489420
I0428 23:58:32.889978 16364 layer_factory.hpp:77] Creating layer res2a_branch2a
I0428 23:58:32.889978 16364 net.cpp:100] Creating Layer res2a_branch2a
I0428 23:58:32.889978 16364 net.cpp:444] res2a_branch2a <- pool1_pool1_0_split_1
I0428 23:58:32.889978 16364 net.cpp:418] res2a_branch2a -> res2a_branch2a
I0428 23:58:32.890975 16364 net.cpp:150] Setting up res2a_branch2a
I0428 23:58:32.890975 16364 net.cpp:157] Top shape: 1 64 56 56 (200704)
I0428 23:58:32.890975 16364 net.cpp:165] Memory required for data: 26292236
I0428 23:58:32.890975 16364 layer_factory.hpp:77] Creating layer bn2a_branch2a
I0428 23:58:32.890975 16364 net.cpp:100] Creating Layer bn2a_branch2a
I0428 23:58:32.890975 16364 net.cpp:444] bn2a_branch2a <- res2a_branch2a
I0428 23:58:32.890975 16364 net.cpp:405] bn2a_branch2a -> res2a_branch2a (in-place)
I0428 23:58:32.890975 16364 net.cpp:150] Setting up bn2a_branch2a
I0428 23:58:32.890975 16364 net.cpp:157] Top shape: 1 64 56 56 (200704)
I0428 23:58:32.890975 16364 net.cpp:165] Memory required for data: 27095052
I0428 23:58:32.890975 16364 layer_factory.hpp:77] Creating layer scale2a_branch2a
I0428 23:58:32.890975 16364 net.cpp:100] Creating Layer scale2a_branch2a
I0428 23:58:32.890975 16364 net.cpp:444] scale2a_branch2a <- res2a_branch2a
I0428 23:58:32.890975 16364 net.cpp:405] scale2a_branch2a -> res2a_branch2a (in-place)
I0428 23:58:32.890975 16364 layer_factory.hpp:77] Creating layer scale2a_branch2a
I0428 23:58:32.890975 16364 net.cpp:150] Setting up scale2a_branch2a
I0428 23:58:32.890975 16364 net.cpp:157] Top shape: 1 64 56 56 (200704)
I0428 23:58:32.890975 16364 net.cpp:165] Memory required for data: 27897868
I0428 23:58:32.890975 16364 layer_factory.hpp:77] Creating layer res2a_branch2a_relu
I0428 23:58:32.890975 16364 net.cpp:100] Creating Layer res2a_branch2a_relu
I0428 23:58:32.890975 16364 net.cpp:444] res2a_branch2a_relu <- res2a_branch2a
I0428 23:58:32.890975 16364 net.cpp:405] res2a_branch2a_relu -> res2a_branch2a (in-place)
I0428 23:58:32.891973 16364 net.cpp:150] Setting up res2a_branch2a_relu
I0428 23:58:32.891973 16364 net.cpp:157] Top shape: 1 64 56 56 (200704)
I0428 23:58:32.891973 16364 net.cpp:165] Memory required for data: 28700684
I0428 23:58:32.891973 16364 layer_factory.hpp:77] Creating layer res2a_branch2b
I0428 23:58:32.891973 16364 net.cpp:100] Creating Layer res2a_branch2b
I0428 23:58:32.891973 16364 net.cpp:444] res2a_branch2b <- res2a_branch2a
I0428 23:58:32.891973 16364 net.cpp:418] res2a_branch2b -> res2a_branch2b
I0428 23:58:32.892971 16364 net.cpp:150] Setting up res2a_branch2b
I0428 23:58:32.892971 16364 net.cpp:157] Top shape: 1 64 56 56 (200704)
I0428 23:58:32.892971 16364 net.cpp:165] Memory required for data: 29503500
I0428 23:58:32.892971 16364 layer_factory.hpp:77] Creating layer bn2a_branch2b
I0428 23:58:32.892971 16364 net.cpp:100] Creating Layer bn2a_branch2b
I0428 23:58:32.892971 16364 net.cpp:444] bn2a_branch2b <- res2a_branch2b
I0428 23:58:32.892971 16364 net.cpp:405] bn2a_branch2b -> res2a_branch2b (in-place)
I0428 23:58:32.892971 16364 net.cpp:150] Setting up bn2a_branch2b
I0428 23:58:32.892971 16364 net.cpp:157] Top shape: 1 64 56 56 (200704)
I0428 23:58:32.892971 16364 net.cpp:165] Memory required for data: 30306316
I0428 23:58:32.892971 16364 layer_factory.hpp:77] Creating layer scale2a_branch2b
I0428 23:58:32.892971 16364 net.cpp:100] Creating Layer scale2a_branch2b
I0428 23:58:32.892971 16364 net.cpp:444] scale2a_branch2b <- res2a_branch2b
I0428 23:58:32.892971 16364 net.cpp:405] scale2a_branch2b -> res2a_branch2b (in-place)
I0428 23:58:32.892971 16364 layer_factory.hpp:77] Creating layer scale2a_branch2b
I0428 23:58:32.892971 16364 net.cpp:150] Setting up scale2a_branch2b
I0428 23:58:32.892971 16364 net.cpp:157] Top shape: 1 64 56 56 (200704)
I0428 23:58:32.892971 16364 net.cpp:165] Memory required for data: 31109132
I0428 23:58:32.892971 16364 layer_factory.hpp:77] Creating layer res2a_branch2b_relu
I0428 23:58:32.892971 16364 net.cpp:100] Creating Layer res2a_branch2b_relu
I0428 23:58:32.892971 16364 net.cpp:444] res2a_branch2b_relu <- res2a_branch2b
I0428 23:58:32.892971 16364 net.cpp:405] res2a_branch2b_relu -> res2a_branch2b (in-place)
I0428 23:58:32.892971 16364 net.cpp:150] Setting up res2a_branch2b_relu
I0428 23:58:32.892971 16364 net.cpp:157] Top shape: 1 64 56 56 (200704)
I0428 23:58:32.892971 16364 net.cpp:165] Memory required for data: 31911948
I0428 23:58:32.892971 16364 layer_factory.hpp:77] Creating layer res2a_branch2c
I0428 23:58:32.892971 16364 net.cpp:100] Creating Layer res2a_branch2c
I0428 23:58:32.892971 16364 net.cpp:444] res2a_branch2c <- res2a_branch2b
I0428 23:58:32.892971 16364 net.cpp:418] res2a_branch2c -> res2a_branch2c
I0428 23:58:32.893967 16364 net.cpp:150] Setting up res2a_branch2c
I0428 23:58:32.893967 16364 net.cpp:157] Top shape: 1 256 56 56 (802816)
I0428 23:58:32.893967 16364 net.cpp:165] Memory required for data: 35123212
I0428 23:58:32.893967 16364 layer_factory.hpp:77] Creating layer bn2a_branch2c
I0428 23:58:32.893967 16364 net.cpp:100] Creating Layer bn2a_branch2c
I0428 23:58:32.893967 16364 net.cpp:444] bn2a_branch2c <- res2a_branch2c
I0428 23:58:32.893967 16364 net.cpp:405] bn2a_branch2c -> res2a_branch2c (in-place)
I0428 23:58:32.893967 16364 net.cpp:150] Setting up bn2a_branch2c
I0428 23:58:32.893967 16364 net.cpp:157] Top shape: 1 256 56 56 (802816)
I0428 23:58:32.893967 16364 net.cpp:165] Memory required for data: 38334476
I0428 23:58:32.893967 16364 layer_factory.hpp:77] Creating layer scale2a_branch2c
I0428 23:58:32.894964 16364 net.cpp:100] Creating Layer scale2a_branch2c
I0428 23:58:32.894964 16364 net.cpp:444] scale2a_branch2c <- res2a_branch2c
I0428 23:58:32.894964 16364 net.cpp:405] scale2a_branch2c -> res2a_branch2c (in-place)
I0428 23:58:32.894964 16364 layer_factory.hpp:77] Creating layer scale2a_branch2c
I0428 23:58:32.894964 16364 net.cpp:150] Setting up scale2a_branch2c
I0428 23:58:32.894964 16364 net.cpp:157] Top shape: 1 256 56 56 (802816)
I0428 23:58:32.894964 16364 net.cpp:165] Memory required for data: 41545740
I0428 23:58:32.894964 16364 layer_factory.hpp:77] Creating layer res2a
I0428 23:58:32.894964 16364 net.cpp:100] Creating Layer res2a
I0428 23:58:32.894964 16364 net.cpp:444] res2a <- res2a_branch1
I0428 23:58:32.894964 16364 net.cpp:444] res2a <- res2a_branch2c
I0428 23:58:32.894964 16364 net.cpp:418] res2a -> res2a
I0428 23:58:32.894964 16364 net.cpp:150] Setting up res2a
I0428 23:58:32.894964 16364 net.cpp:157] Top shape: 1 256 56 56 (802816)
I0428 23:58:32.894964 16364 net.cpp:165] Memory required for data: 44757004
I0428 23:58:32.894964 16364 layer_factory.hpp:77] Creating layer res2a_relu
I0428 23:58:32.894964 16364 net.cpp:100] Creating Layer res2a_relu
I0428 23:58:32.894964 16364 net.cpp:444] res2a_relu <- res2a
I0428 23:58:32.894964 16364 net.cpp:405] res2a_relu -> res2a (in-place)
I0428 23:58:32.894964 16364 net.cpp:150] Setting up res2a_relu
I0428 23:58:32.894964 16364 net.cpp:157] Top shape: 1 256 56 56 (802816)
I0428 23:58:32.894964 16364 net.cpp:165] Memory required for data: 47968268
I0428 23:58:32.894964 16364 layer_factory.hpp:77] Creating layer res2a_res2a_relu_0_split
I0428 23:58:32.895962 16364 net.cpp:100] Creating Layer res2a_res2a_relu_0_split
I0428 23:58:32.895962 16364 net.cpp:444] res2a_res2a_relu_0_split <- res2a
I0428 23:58:32.895962 16364 net.cpp:418] res2a_res2a_relu_0_split -> res2a_res2a_relu_0_split_0
I0428 23:58:32.895962 16364 net.cpp:418] res2a_res2a_relu_0_split -> res2a_res2a_relu_0_split_1
I0428 23:58:32.895962 16364 net.cpp:150] Setting up res2a_res2a_relu_0_split
I0428 23:58:32.895962 16364 net.cpp:157] Top shape: 1 256 56 56 (802816)
I0428 23:58:32.895962 16364 net.cpp:157] Top shape: 1 256 56 56 (802816)
I0428 23:58:32.895962 16364 net.cpp:165] Memory required for data: 54390796
I0428 23:58:32.895962 16364 layer_factory.hpp:77] Creating layer res2b_branch2a
I0428 23:58:32.895962 16364 net.cpp:100] Creating Layer res2b_branch2a
I0428 23:58:32.895962 16364 net.cpp:444] res2b_branch2a <- res2a_res2a_relu_0_split_0
I0428 23:58:32.895962 16364 net.cpp:418] res2b_branch2a -> res2b_branch2a
I0428 23:58:32.896981 16364 net.cpp:150] Setting up res2b_branch2a
I0428 23:58:32.896981 16364 net.cpp:157] Top shape: 1 64 56 56 (200704)
I0428 23:58:32.896981 16364 net.cpp:165] Memory required for data: 55193612
I0428 23:58:32.896981 16364 layer_factory.hpp:77] Creating layer bn2b_branch2a
I0428 23:58:32.896981 16364 net.cpp:100] Creating Layer bn2b_branch2a
I0428 23:58:32.896981 16364 net.cpp:444] bn2b_branch2a <- res2b_branch2a
I0428 23:58:32.896981 16364 net.cpp:405] bn2b_branch2a -> res2b_branch2a (in-place)
I0428 23:58:32.896981 16364 net.cpp:150] Setting up bn2b_branch2a
I0428 23:58:32.896981 16364 net.cpp:157] Top shape: 1 64 56 56 (200704)
I0428 23:58:32.896981 16364 net.cpp:165] Memory required for data: 55996428
I0428 23:58:32.896981 16364 layer_factory.hpp:77] Creating layer scale2b_branch2a
I0428 23:58:32.896981 16364 net.cpp:100] Creating Layer scale2b_branch2a
I0428 23:58:32.896981 16364 net.cpp:444] scale2b_branch2a <- res2b_branch2a
I0428 23:58:32.896981 16364 net.cpp:405] scale2b_branch2a -> res2b_branch2a (in-place)
I0428 23:58:32.896981 16364 layer_factory.hpp:77] Creating layer scale2b_branch2a
I0428 23:58:32.896981 16364 net.cpp:150] Setting up scale2b_branch2a
I0428 23:58:32.896981 16364 net.cpp:157] Top shape: 1 64 56 56 (200704)
I0428 23:58:32.896981 16364 net.cpp:165] Memory required for data: 56799244
I0428 23:58:32.896981 16364 layer_factory.hpp:77] Creating layer res2b_branch2a_relu
I0428 23:58:32.897979 16364 net.cpp:100] Creating Layer res2b_branch2a_relu
I0428 23:58:32.897979 16364 net.cpp:444] res2b_branch2a_relu <- res2b_branch2a
I0428 23:58:32.897979 16364 net.cpp:405] res2b_branch2a_relu -> res2b_branch2a (in-place)
I0428 23:58:32.897979 16364 net.cpp:150] Setting up res2b_branch2a_relu
I0428 23:58:32.897979 16364 net.cpp:157] Top shape: 1 64 56 56 (200704)
I0428 23:58:32.897979 16364 net.cpp:165] Memory required for data: 57602060
I0428 23:58:32.897979 16364 layer_factory.hpp:77] Creating layer res2b_branch2b
I0428 23:58:32.897979 16364 net.cpp:100] Creating Layer res2b_branch2b
I0428 23:58:32.897979 16364 net.cpp:444] res2b_branch2b <- res2b_branch2a
I0428 23:58:32.897979 16364 net.cpp:418] res2b_branch2b -> res2b_branch2b
I0428 23:58:32.898977 16364 net.cpp:150] Setting up res2b_branch2b
I0428 23:58:32.898977 16364 net.cpp:157] Top shape: 1 64 56 56 (200704)
I0428 23:58:32.898977 16364 net.cpp:165] Memory required for data: 58404876
I0428 23:58:32.898977 16364 layer_factory.hpp:77] Creating layer bn2b_branch2b
I0428 23:58:32.898977 16364 net.cpp:100] Creating Layer bn2b_branch2b
I0428 23:58:32.898977 16364 net.cpp:444] bn2b_branch2b <- res2b_branch2b
I0428 23:58:32.898977 16364 net.cpp:405] bn2b_branch2b -> res2b_branch2b (in-place)
I0428 23:58:32.898977 16364 net.cpp:150] Setting up bn2b_branch2b
I0428 23:58:32.898977 16364 net.cpp:157] Top shape: 1 64 56 56 (200704)
I0428 23:58:32.898977 16364 net.cpp:165] Memory required for data: 59207692
I0428 23:58:32.898977 16364 layer_factory.hpp:77] Creating layer scale2b_branch2b
I0428 23:58:32.898977 16364 net.cpp:100] Creating Layer scale2b_branch2b
I0428 23:58:32.898977 16364 net.cpp:444] scale2b_branch2b <- res2b_branch2b
I0428 23:58:32.898977 16364 net.cpp:405] scale2b_branch2b -> res2b_branch2b (in-place)
I0428 23:58:32.898977 16364 layer_factory.hpp:77] Creating layer scale2b_branch2b
I0428 23:58:32.898977 16364 net.cpp:150] Setting up scale2b_branch2b
I0428 23:58:32.898977 16364 net.cpp:157] Top shape: 1 64 56 56 (200704)
I0428 23:58:32.898977 16364 net.cpp:165] Memory required for data: 60010508
I0428 23:58:32.898977 16364 layer_factory.hpp:77] Creating layer res2b_branch2b_relu
I0428 23:58:32.898977 16364 net.cpp:100] Creating Layer res2b_branch2b_relu
I0428 23:58:32.898977 16364 net.cpp:444] res2b_branch2b_relu <- res2b_branch2b
I0428 23:58:32.898977 16364 net.cpp:405] res2b_branch2b_relu -> res2b_branch2b (in-place)
I0428 23:58:32.899952 16364 net.cpp:150] Setting up res2b_branch2b_relu
I0428 23:58:32.899952 16364 net.cpp:157] Top shape: 1 64 56 56 (200704)
I0428 23:58:32.899952 16364 net.cpp:165] Memory required for data: 60813324
I0428 23:58:32.899952 16364 layer_factory.hpp:77] Creating layer res2b_branch2c
I0428 23:58:32.899952 16364 net.cpp:100] Creating Layer res2b_branch2c
I0428 23:58:32.899952 16364 net.cpp:444] res2b_branch2c <- res2b_branch2b
I0428 23:58:32.899952 16364 net.cpp:418] res2b_branch2c -> res2b_branch2c
I0428 23:58:32.900950 16364 net.cpp:150] Setting up res2b_branch2c
I0428 23:58:32.900950 16364 net.cpp:157] Top shape: 1 256 56 56 (802816)
I0428 23:58:32.900950 16364 net.cpp:165] Memory required for data: 64024588
I0428 23:58:32.900950 16364 layer_factory.hpp:77] Creating layer bn2b_branch2c
I0428 23:58:32.900950 16364 net.cpp:100] Creating Layer bn2b_branch2c
I0428 23:58:32.900950 16364 net.cpp:444] bn2b_branch2c <- res2b_branch2c
I0428 23:58:32.900950 16364 net.cpp:405] bn2b_branch2c -> res2b_branch2c (in-place)
I0428 23:58:32.900950 16364 net.cpp:150] Setting up bn2b_branch2c
I0428 23:58:32.900950 16364 net.cpp:157] Top shape: 1 256 56 56 (802816)
I0428 23:58:32.900950 16364 net.cpp:165] Memory required for data: 67235852
I0428 23:58:32.900950 16364 layer_factory.hpp:77] Creating layer scale2b_branch2c
I0428 23:58:32.900950 16364 net.cpp:100] Creating Layer scale2b_branch2c
I0428 23:58:32.900950 16364 net.cpp:444] scale2b_branch2c <- res2b_branch2c
I0428 23:58:32.900950 16364 net.cpp:405] scale2b_branch2c -> res2b_branch2c (in-place)
I0428 23:58:32.900950 16364 layer_factory.hpp:77] Creating layer scale2b_branch2c
I0428 23:58:32.900950 16364 net.cpp:150] Setting up scale2b_branch2c
I0428 23:58:32.900950 16364 net.cpp:157] Top shape: 1 256 56 56 (802816)
I0428 23:58:32.900950 16364 net.cpp:165] Memory required for data: 70447116
I0428 23:58:32.900950 16364 layer_factory.hpp:77] Creating layer res2b
I0428 23:58:32.900950 16364 net.cpp:100] Creating Layer res2b
I0428 23:58:32.900950 16364 net.cpp:444] res2b <- res2a_res2a_relu_0_split_1
I0428 23:58:32.900950 16364 net.cpp:444] res2b <- res2b_branch2c
I0428 23:58:32.900950 16364 net.cpp:418] res2b -> res2b
I0428 23:58:32.900950 16364 net.cpp:150] Setting up res2b
I0428 23:58:32.900950 16364 net.cpp:157] Top shape: 1 256 56 56 (802816)
I0428 23:58:32.900950 16364 net.cpp:165] Memory required for data: 73658380
I0428 23:58:32.900950 16364 layer_factory.hpp:77] Creating layer res2b_relu
I0428 23:58:32.900950 16364 net.cpp:100] Creating Layer res2b_relu
I0428 23:58:32.900950 16364 net.cpp:444] res2b_relu <- res2b
I0428 23:58:32.900950 16364 net.cpp:405] res2b_relu -> res2b (in-place)
I0428 23:58:32.901947 16364 net.cpp:150] Setting up res2b_relu
I0428 23:58:32.901947 16364 net.cpp:157] Top shape: 1 256 56 56 (802816)
I0428 23:58:32.901947 16364 net.cpp:165] Memory required for data: 76869644
I0428 23:58:32.901947 16364 layer_factory.hpp:77] Creating layer res2b_res2b_relu_0_split
I0428 23:58:32.901947 16364 net.cpp:100] Creating Layer res2b_res2b_relu_0_split
I0428 23:58:32.901947 16364 net.cpp:444] res2b_res2b_relu_0_split <- res2b
I0428 23:58:32.901947 16364 net.cpp:418] res2b_res2b_relu_0_split -> res2b_res2b_relu_0_split_0
I0428 23:58:32.901947 16364 net.cpp:418] res2b_res2b_relu_0_split -> res2b_res2b_relu_0_split_1
I0428 23:58:32.901947 16364 net.cpp:150] Setting up res2b_res2b_relu_0_split
I0428 23:58:32.901947 16364 net.cpp:157] Top shape: 1 256 56 56 (802816)
I0428 23:58:32.901947 16364 net.cpp:157] Top shape: 1 256 56 56 (802816)
I0428 23:58:32.901947 16364 net.cpp:165] Memory required for data: 83292172
I0428 23:58:32.901947 16364 layer_factory.hpp:77] Creating layer res2c_branch2a
I0428 23:58:32.901947 16364 net.cpp:100] Creating Layer res2c_branch2a
I0428 23:58:32.901947 16364 net.cpp:444] res2c_branch2a <- res2b_res2b_relu_0_split_0
I0428 23:58:32.901947 16364 net.cpp:418] res2c_branch2a -> res2c_branch2a
I0428 23:58:32.903941 16364 net.cpp:150] Setting up res2c_branch2a
I0428 23:58:32.903941 16364 net.cpp:157] Top shape: 1 64 56 56 (200704)
I0428 23:58:32.903941 16364 net.cpp:165] Memory required for data: 84094988
I0428 23:58:32.903941 16364 layer_factory.hpp:77] Creating layer bn2c_branch2a
I0428 23:58:32.903941 16364 net.cpp:100] Creating Layer bn2c_branch2a
I0428 23:58:32.903941 16364 net.cpp:444] bn2c_branch2a <- res2c_branch2a
I0428 23:58:32.903941 16364 net.cpp:405] bn2c_branch2a -> res2c_branch2a (in-place)
I0428 23:58:32.903941 16364 net.cpp:150] Setting up bn2c_branch2a
I0428 23:58:32.903941 16364 net.cpp:157] Top shape: 1 64 56 56 (200704)
I0428 23:58:32.903941 16364 net.cpp:165] Memory required for data: 84897804
I0428 23:58:32.903941 16364 layer_factory.hpp:77] Creating layer scale2c_branch2a
I0428 23:58:32.903941 16364 net.cpp:100] Creating Layer scale2c_branch2a
I0428 23:58:32.903941 16364 net.cpp:444] scale2c_branch2a <- res2c_branch2a
I0428 23:58:32.903941 16364 net.cpp:405] scale2c_branch2a -> res2c_branch2a (in-place)
I0428 23:58:32.903941 16364 layer_factory.hpp:77] Creating layer scale2c_branch2a
I0428 23:58:32.903941 16364 net.cpp:150] Setting up scale2c_branch2a
I0428 23:58:32.903941 16364 net.cpp:157] Top shape: 1 64 56 56 (200704)
I0428 23:58:32.903941 16364 net.cpp:165] Memory required for data: 85700620
I0428 23:58:32.903941 16364 layer_factory.hpp:77] Creating layer res2c_branch2a_relu
I0428 23:58:32.903941 16364 net.cpp:100] Creating Layer res2c_branch2a_relu
I0428 23:58:32.903941 16364 net.cpp:444] res2c_branch2a_relu <- res2c_branch2a
I0428 23:58:32.903941 16364 net.cpp:405] res2c_branch2a_relu -> res2c_branch2a (in-place)
I0428 23:58:32.903941 16364 net.cpp:150] Setting up res2c_branch2a_relu
I0428 23:58:32.903941 16364 net.cpp:157] Top shape: 1 64 56 56 (200704)
I0428 23:58:32.903941 16364 net.cpp:165] Memory required for data: 86503436
I0428 23:58:32.903941 16364 layer_factory.hpp:77] Creating layer res2c_branch2b
I0428 23:58:32.903941 16364 net.cpp:100] Creating Layer res2c_branch2b
I0428 23:58:32.903941 16364 net.cpp:444] res2c_branch2b <- res2c_branch2a
I0428 23:58:32.903941 16364 net.cpp:418] res2c_branch2b -> res2c_branch2b
I0428 23:58:32.904960 16364 net.cpp:150] Setting up res2c_branch2b
I0428 23:58:32.904960 16364 net.cpp:157] Top shape: 1 64 56 56 (200704)
I0428 23:58:32.904960 16364 net.cpp:165] Memory required for data: 87306252
I0428 23:58:32.904960 16364 layer_factory.hpp:77] Creating layer bn2c_branch2b
I0428 23:58:32.904960 16364 net.cpp:100] Creating Layer bn2c_branch2b
I0428 23:58:32.904960 16364 net.cpp:444] bn2c_branch2b <- res2c_branch2b
I0428 23:58:32.904960 16364 net.cpp:405] bn2c_branch2b -> res2c_branch2b (in-place)
I0428 23:58:32.904960 16364 net.cpp:150] Setting up bn2c_branch2b
I0428 23:58:32.904960 16364 net.cpp:157] Top shape: 1 64 56 56 (200704)
I0428 23:58:32.904960 16364 net.cpp:165] Memory required for data: 88109068
I0428 23:58:32.904960 16364 layer_factory.hpp:77] Creating layer scale2c_branch2b
I0428 23:58:32.904960 16364 net.cpp:100] Creating Layer scale2c_branch2b
I0428 23:58:32.904960 16364 net.cpp:444] scale2c_branch2b <- res2c_branch2b
I0428 23:58:32.904960 16364 net.cpp:405] scale2c_branch2b -> res2c_branch2b (in-place)
I0428 23:58:32.904960 16364 layer_factory.hpp:77] Creating layer scale2c_branch2b
I0428 23:58:32.904960 16364 net.cpp:150] Setting up scale2c_branch2b
I0428 23:58:32.904960 16364 net.cpp:157] Top shape: 1 64 56 56 (200704)
I0428 23:58:32.904960 16364 net.cpp:165] Memory required for data: 88911884
I0428 23:58:32.904960 16364 layer_factory.hpp:77] Creating layer res2c_branch2b_relu
I0428 23:58:32.904960 16364 net.cpp:100] Creating Layer res2c_branch2b_relu
I0428 23:58:32.904960 16364 net.cpp:444] res2c_branch2b_relu <- res2c_branch2b
I0428 23:58:32.904960 16364 net.cpp:405] res2c_branch2b_relu -> res2c_branch2b (in-place)
I0428 23:58:32.905957 16364 net.cpp:150] Setting up res2c_branch2b_relu
I0428 23:58:32.905957 16364 net.cpp:157] Top shape: 1 64 56 56 (200704)
I0428 23:58:32.905957 16364 net.cpp:165] Memory required for data: 89714700
I0428 23:58:32.905957 16364 layer_factory.hpp:77] Creating layer res2c_branch2c
I0428 23:58:32.905957 16364 net.cpp:100] Creating Layer res2c_branch2c
I0428 23:58:32.905957 16364 net.cpp:444] res2c_branch2c <- res2c_branch2b
I0428 23:58:32.905957 16364 net.cpp:418] res2c_branch2c -> res2c_branch2c
I0428 23:58:32.906934 16364 net.cpp:150] Setting up res2c_branch2c
I0428 23:58:32.906934 16364 net.cpp:157] Top shape: 1 256 56 56 (802816)
I0428 23:58:32.906934 16364 net.cpp:165] Memory required for data: 92925964
I0428 23:58:32.906934 16364 layer_factory.hpp:77] Creating layer bn2c_branch2c
I0428 23:58:32.906934 16364 net.cpp:100] Creating Layer bn2c_branch2c
I0428 23:58:32.906934 16364 net.cpp:444] bn2c_branch2c <- res2c_branch2c
I0428 23:58:32.906934 16364 net.cpp:405] bn2c_branch2c -> res2c_branch2c (in-place)
I0428 23:58:32.906934 16364 net.cpp:150] Setting up bn2c_branch2c
I0428 23:58:32.906934 16364 net.cpp:157] Top shape: 1 256 56 56 (802816)
I0428 23:58:32.906934 16364 net.cpp:165] Memory required for data: 96137228
I0428 23:58:32.906934 16364 layer_factory.hpp:77] Creating layer scale2c_branch2c
I0428 23:58:32.906934 16364 net.cpp:100] Creating Layer scale2c_branch2c
I0428 23:58:32.906934 16364 net.cpp:444] scale2c_branch2c <- res2c_branch2c
I0428 23:58:32.906934 16364 net.cpp:405] scale2c_branch2c -> res2c_branch2c (in-place)
I0428 23:58:32.906934 16364 layer_factory.hpp:77] Creating layer scale2c_branch2c
I0428 23:58:32.906934 16364 net.cpp:150] Setting up scale2c_branch2c
I0428 23:58:32.906934 16364 net.cpp:157] Top shape: 1 256 56 56 (802816)
I0428 23:58:32.906934 16364 net.cpp:165] Memory required for data: 99348492
I0428 23:58:32.906934 16364 layer_factory.hpp:77] Creating layer res2c
I0428 23:58:32.906934 16364 net.cpp:100] Creating Layer res2c
I0428 23:58:32.906934 16364 net.cpp:444] res2c <- res2b_res2b_relu_0_split_1
I0428 23:58:32.906934 16364 net.cpp:444] res2c <- res2c_branch2c
I0428 23:58:32.906934 16364 net.cpp:418] res2c -> res2c
I0428 23:58:32.906934 16364 net.cpp:150] Setting up res2c
I0428 23:58:32.906934 16364 net.cpp:157] Top shape: 1 256 56 56 (802816)
I0428 23:58:32.906934 16364 net.cpp:165] Memory required for data: 102559756
I0428 23:58:32.906934 16364 layer_factory.hpp:77] Creating layer res2c_relu
I0428 23:58:32.906934 16364 net.cpp:100] Creating Layer res2c_relu
I0428 23:58:32.906934 16364 net.cpp:444] res2c_relu <- res2c
I0428 23:58:32.906934 16364 net.cpp:405] res2c_relu -> res2c (in-place)
I0428 23:58:32.907930 16364 net.cpp:150] Setting up res2c_relu
I0428 23:58:32.907930 16364 net.cpp:157] Top shape: 1 256 56 56 (802816)
I0428 23:58:32.907930 16364 net.cpp:165] Memory required for data: 105771020
I0428 23:58:32.907930 16364 layer_factory.hpp:77] Creating layer res2c_res2c_relu_0_split
I0428 23:58:32.907930 16364 net.cpp:100] Creating Layer res2c_res2c_relu_0_split
I0428 23:58:32.907930 16364 net.cpp:444] res2c_res2c_relu_0_split <- res2c
I0428 23:58:32.907930 16364 net.cpp:418] res2c_res2c_relu_0_split -> res2c_res2c_relu_0_split_0
I0428 23:58:32.907930 16364 net.cpp:418] res2c_res2c_relu_0_split -> res2c_res2c_relu_0_split_1
I0428 23:58:32.907930 16364 net.cpp:150] Setting up res2c_res2c_relu_0_split
I0428 23:58:32.907930 16364 net.cpp:157] Top shape: 1 256 56 56 (802816)
I0428 23:58:32.907930 16364 net.cpp:157] Top shape: 1 256 56 56 (802816)
I0428 23:58:32.907930 16364 net.cpp:165] Memory required for data: 112193548
I0428 23:58:32.907930 16364 layer_factory.hpp:77] Creating layer res3a_branch1
I0428 23:58:32.907930 16364 net.cpp:100] Creating Layer res3a_branch1
I0428 23:58:32.907930 16364 net.cpp:444] res3a_branch1 <- res2c_res2c_relu_0_split_0
I0428 23:58:32.907930 16364 net.cpp:418] res3a_branch1 -> res3a_branch1
I0428 23:58:32.908951 16364 net.cpp:150] Setting up res3a_branch1
I0428 23:58:32.908951 16364 net.cpp:157] Top shape: 1 512 28 28 (401408)
I0428 23:58:32.908951 16364 net.cpp:165] Memory required for data: 113799180
I0428 23:58:32.909947 16364 layer_factory.hpp:77] Creating layer bn3a_branch1
I0428 23:58:32.909947 16364 net.cpp:100] Creating Layer bn3a_branch1
I0428 23:58:32.909947 16364 net.cpp:444] bn3a_branch1 <- res3a_branch1
I0428 23:58:32.909947 16364 net.cpp:405] bn3a_branch1 -> res3a_branch1 (in-place)
I0428 23:58:32.909947 16364 net.cpp:150] Setting up bn3a_branch1
I0428 23:58:32.909947 16364 net.cpp:157] Top shape: 1 512 28 28 (401408)
I0428 23:58:32.909947 16364 net.cpp:165] Memory required for data: 115404812
I0428 23:58:32.909947 16364 layer_factory.hpp:77] Creating layer scale3a_branch1
I0428 23:58:32.909947 16364 net.cpp:100] Creating Layer scale3a_branch1
I0428 23:58:32.909947 16364 net.cpp:444] scale3a_branch1 <- res3a_branch1
I0428 23:58:32.909947 16364 net.cpp:405] scale3a_branch1 -> res3a_branch1 (in-place)
I0428 23:58:32.909947 16364 layer_factory.hpp:77] Creating layer scale3a_branch1
I0428 23:58:32.909947 16364 net.cpp:150] Setting up scale3a_branch1
I0428 23:58:32.909947 16364 net.cpp:157] Top shape: 1 512 28 28 (401408)
I0428 23:58:32.909947 16364 net.cpp:165] Memory required for data: 117010444
I0428 23:58:32.909947 16364 layer_factory.hpp:77] Creating layer res3a_branch2a
I0428 23:58:32.909947 16364 net.cpp:100] Creating Layer res3a_branch2a
I0428 23:58:32.909947 16364 net.cpp:444] res3a_branch2a <- res2c_res2c_relu_0_split_1
I0428 23:58:32.909947 16364 net.cpp:418] res3a_branch2a -> res3a_branch2a
I0428 23:58:32.910944 16364 net.cpp:150] Setting up res3a_branch2a
I0428 23:58:32.910944 16364 net.cpp:157] Top shape: 1 128 28 28 (100352)
I0428 23:58:32.910944 16364 net.cpp:165] Memory required for data: 117411852
I0428 23:58:32.910944 16364 layer_factory.hpp:77] Creating layer bn3a_branch2a
I0428 23:58:32.910944 16364 net.cpp:100] Creating Layer bn3a_branch2a
I0428 23:58:32.910944 16364 net.cpp:444] bn3a_branch2a <- res3a_branch2a
I0428 23:58:32.910944 16364 net.cpp:405] bn3a_branch2a -> res3a_branch2a (in-place)
I0428 23:58:32.910944 16364 net.cpp:150] Setting up bn3a_branch2a
I0428 23:58:32.910944 16364 net.cpp:157] Top shape: 1 128 28 28 (100352)
I0428 23:58:32.910944 16364 net.cpp:165] Memory required for data: 117813260
I0428 23:58:32.910944 16364 layer_factory.hpp:77] Creating layer scale3a_branch2a
I0428 23:58:32.910944 16364 net.cpp:100] Creating Layer scale3a_branch2a
I0428 23:58:32.910944 16364 net.cpp:444] scale3a_branch2a <- res3a_branch2a
I0428 23:58:32.910944 16364 net.cpp:405] scale3a_branch2a -> res3a_branch2a (in-place)
I0428 23:58:32.910944 16364 layer_factory.hpp:77] Creating layer scale3a_branch2a
I0428 23:58:32.910944 16364 net.cpp:150] Setting up scale3a_branch2a
I0428 23:58:32.910944 16364 net.cpp:157] Top shape: 1 128 28 28 (100352)
I0428 23:58:32.910944 16364 net.cpp:165] Memory required for data: 118214668
I0428 23:58:32.910944 16364 layer_factory.hpp:77] Creating layer res3a_branch2a_relu
I0428 23:58:32.910944 16364 net.cpp:100] Creating Layer res3a_branch2a_relu
I0428 23:58:32.910944 16364 net.cpp:444] res3a_branch2a_relu <- res3a_branch2a
I0428 23:58:32.910944 16364 net.cpp:405] res3a_branch2a_relu -> res3a_branch2a (in-place)
I0428 23:58:32.910944 16364 net.cpp:150] Setting up res3a_branch2a_relu
I0428 23:58:32.910944 16364 net.cpp:157] Top shape: 1 128 28 28 (100352)
I0428 23:58:32.910944 16364 net.cpp:165] Memory required for data: 118616076
I0428 23:58:32.910944 16364 layer_factory.hpp:77] Creating layer res3a_branch2b
I0428 23:58:32.910944 16364 net.cpp:100] Creating Layer res3a_branch2b
I0428 23:58:32.910944 16364 net.cpp:444] res3a_branch2b <- res3a_branch2a
I0428 23:58:32.910944 16364 net.cpp:418] res3a_branch2b -> res3a_branch2b
I0428 23:58:32.912917 16364 net.cpp:150] Setting up res3a_branch2b
I0428 23:58:32.912917 16364 net.cpp:157] Top shape: 1 128 28 28 (100352)
I0428 23:58:32.912917 16364 net.cpp:165] Memory required for data: 119017484
I0428 23:58:32.912917 16364 layer_factory.hpp:77] Creating layer bn3a_branch2b
I0428 23:58:32.912917 16364 net.cpp:100] Creating Layer bn3a_branch2b
I0428 23:58:32.912917 16364 net.cpp:444] bn3a_branch2b <- res3a_branch2b
I0428 23:58:32.912917 16364 net.cpp:405] bn3a_branch2b -> res3a_branch2b (in-place)
I0428 23:58:32.912917 16364 net.cpp:150] Setting up bn3a_branch2b
I0428 23:58:32.912917 16364 net.cpp:157] Top shape: 1 128 28 28 (100352)
I0428 23:58:32.912917 16364 net.cpp:165] Memory required for data: 119418892
I0428 23:58:32.912917 16364 layer_factory.hpp:77] Creating layer scale3a_branch2b
I0428 23:58:32.912917 16364 net.cpp:100] Creating Layer scale3a_branch2b
I0428 23:58:32.912917 16364 net.cpp:444] scale3a_branch2b <- res3a_branch2b
I0428 23:58:32.912917 16364 net.cpp:405] scale3a_branch2b -> res3a_branch2b (in-place)
I0428 23:58:32.912917 16364 layer_factory.hpp:77] Creating layer scale3a_branch2b
I0428 23:58:32.912917 16364 net.cpp:150] Setting up scale3a_branch2b
I0428 23:58:32.912917 16364 net.cpp:157] Top shape: 1 128 28 28 (100352)
I0428 23:58:32.912917 16364 net.cpp:165] Memory required for data: 119820300
I0428 23:58:32.912917 16364 layer_factory.hpp:77] Creating layer res3a_branch2b_relu
I0428 23:58:32.912917 16364 net.cpp:100] Creating Layer res3a_branch2b_relu
I0428 23:58:32.912917 16364 net.cpp:444] res3a_branch2b_relu <- res3a_branch2b
I0428 23:58:32.912917 16364 net.cpp:405] res3a_branch2b_relu -> res3a_branch2b (in-place)
I0428 23:58:32.913915 16364 net.cpp:150] Setting up res3a_branch2b_relu
I0428 23:58:32.913915 16364 net.cpp:157] Top shape: 1 128 28 28 (100352)
I0428 23:58:32.913915 16364 net.cpp:165] Memory required for data: 120221708
I0428 23:58:32.913915 16364 layer_factory.hpp:77] Creating layer res3a_branch2c
I0428 23:58:32.913915 16364 net.cpp:100] Creating Layer res3a_branch2c
I0428 23:58:32.913915 16364 net.cpp:444] res3a_branch2c <- res3a_branch2b
I0428 23:58:32.913915 16364 net.cpp:418] res3a_branch2c -> res3a_branch2c
I0428 23:58:32.914911 16364 net.cpp:150] Setting up res3a_branch2c
I0428 23:58:32.914911 16364 net.cpp:157] Top shape: 1 512 28 28 (401408)
I0428 23:58:32.914911 16364 net.cpp:165] Memory required for data: 121827340
I0428 23:58:32.914911 16364 layer_factory.hpp:77] Creating layer bn3a_branch2c
I0428 23:58:32.914911 16364 net.cpp:100] Creating Layer bn3a_branch2c
I0428 23:58:32.914911 16364 net.cpp:444] bn3a_branch2c <- res3a_branch2c
I0428 23:58:32.914911 16364 net.cpp:405] bn3a_branch2c -> res3a_branch2c (in-place)
I0428 23:58:32.914911 16364 net.cpp:150] Setting up bn3a_branch2c
I0428 23:58:32.914911 16364 net.cpp:157] Top shape: 1 512 28 28 (401408)
I0428 23:58:32.914911 16364 net.cpp:165] Memory required for data: 123432972
I0428 23:58:32.914911 16364 layer_factory.hpp:77] Creating layer scale3a_branch2c
I0428 23:58:32.914911 16364 net.cpp:100] Creating Layer scale3a_branch2c
I0428 23:58:32.914911 16364 net.cpp:444] scale3a_branch2c <- res3a_branch2c
I0428 23:58:32.914911 16364 net.cpp:405] scale3a_branch2c -> res3a_branch2c (in-place)
I0428 23:58:32.914911 16364 layer_factory.hpp:77] Creating layer scale3a_branch2c
I0428 23:58:32.914911 16364 net.cpp:150] Setting up scale3a_branch2c
I0428 23:58:32.914911 16364 net.cpp:157] Top shape: 1 512 28 28 (401408)
I0428 23:58:32.914911 16364 net.cpp:165] Memory required for data: 125038604
I0428 23:58:32.914911 16364 layer_factory.hpp:77] Creating layer res3a
I0428 23:58:32.914911 16364 net.cpp:100] Creating Layer res3a
I0428 23:58:32.914911 16364 net.cpp:444] res3a <- res3a_branch1
I0428 23:58:32.914911 16364 net.cpp:444] res3a <- res3a_branch2c
I0428 23:58:32.914911 16364 net.cpp:418] res3a -> res3a
I0428 23:58:32.914911 16364 net.cpp:150] Setting up res3a
I0428 23:58:32.914911 16364 net.cpp:157] Top shape: 1 512 28 28 (401408)
I0428 23:58:32.914911 16364 net.cpp:165] Memory required for data: 126644236
I0428 23:58:32.914911 16364 layer_factory.hpp:77] Creating layer res3a_relu
I0428 23:58:32.914911 16364 net.cpp:100] Creating Layer res3a_relu
I0428 23:58:32.914911 16364 net.cpp:444] res3a_relu <- res3a
I0428 23:58:32.914911 16364 net.cpp:405] res3a_relu -> res3a (in-place)
I0428 23:58:32.915910 16364 net.cpp:150] Setting up res3a_relu
I0428 23:58:32.915910 16364 net.cpp:157] Top shape: 1 512 28 28 (401408)
I0428 23:58:32.915910 16364 net.cpp:165] Memory required for data: 128249868
I0428 23:58:32.915910 16364 layer_factory.hpp:77] Creating layer res3a_res3a_relu_0_split
I0428 23:58:32.915910 16364 net.cpp:100] Creating Layer res3a_res3a_relu_0_split
I0428 23:58:32.915910 16364 net.cpp:444] res3a_res3a_relu_0_split <- res3a
I0428 23:58:32.915910 16364 net.cpp:418] res3a_res3a_relu_0_split -> res3a_res3a_relu_0_split_0
I0428 23:58:32.915910 16364 net.cpp:418] res3a_res3a_relu_0_split -> res3a_res3a_relu_0_split_1
I0428 23:58:32.915910 16364 net.cpp:150] Setting up res3a_res3a_relu_0_split
I0428 23:58:32.915910 16364 net.cpp:157] Top shape: 1 512 28 28 (401408)
I0428 23:58:32.915910 16364 net.cpp:157] Top shape: 1 512 28 28 (401408)
I0428 23:58:32.915910 16364 net.cpp:165] Memory required for data: 131461132
I0428 23:58:32.915910 16364 layer_factory.hpp:77] Creating layer res3b_branch2a
I0428 23:58:32.915910 16364 net.cpp:100] Creating Layer res3b_branch2a
I0428 23:58:32.915910 16364 net.cpp:444] res3b_branch2a <- res3a_res3a_relu_0_split_0
I0428 23:58:32.915910 16364 net.cpp:418] res3b_branch2a -> res3b_branch2a
I0428 23:58:32.916906 16364 net.cpp:150] Setting up res3b_branch2a
I0428 23:58:32.917904 16364 net.cpp:157] Top shape: 1 128 28 28 (100352)
I0428 23:58:32.917904 16364 net.cpp:165] Memory required for data: 131862540
I0428 23:58:32.917904 16364 layer_factory.hpp:77] Creating layer bn3b_branch2a
I0428 23:58:32.917904 16364 net.cpp:100] Creating Layer bn3b_branch2a
I0428 23:58:32.917904 16364 net.cpp:444] bn3b_branch2a <- res3b_branch2a
I0428 23:58:32.917904 16364 net.cpp:405] bn3b_branch2a -> res3b_branch2a (in-place)
I0428 23:58:32.917904 16364 net.cpp:150] Setting up bn3b_branch2a
I0428 23:58:32.917904 16364 net.cpp:157] Top shape: 1 128 28 28 (100352)
I0428 23:58:32.917904 16364 net.cpp:165] Memory required for data: 132263948
I0428 23:58:32.917904 16364 layer_factory.hpp:77] Creating layer scale3b_branch2a
I0428 23:58:32.917904 16364 net.cpp:100] Creating Layer scale3b_branch2a
I0428 23:58:32.917904 16364 net.cpp:444] scale3b_branch2a <- res3b_branch2a
I0428 23:58:32.917904 16364 net.cpp:405] scale3b_branch2a -> res3b_branch2a (in-place)
I0428 23:58:32.917904 16364 layer_factory.hpp:77] Creating layer scale3b_branch2a
I0428 23:58:32.917904 16364 net.cpp:150] Setting up scale3b_branch2a
I0428 23:58:32.917904 16364 net.cpp:157] Top shape: 1 128 28 28 (100352)
I0428 23:58:32.917904 16364 net.cpp:165] Memory required for data: 132665356
I0428 23:58:32.917904 16364 layer_factory.hpp:77] Creating layer res3b_branch2a_relu
I0428 23:58:32.917904 16364 net.cpp:100] Creating Layer res3b_branch2a_relu
I0428 23:58:32.917904 16364 net.cpp:444] res3b_branch2a_relu <- res3b_branch2a
I0428 23:58:32.917904 16364 net.cpp:405] res3b_branch2a_relu -> res3b_branch2a (in-place)
I0428 23:58:32.917904 16364 net.cpp:150] Setting up res3b_branch2a_relu
I0428 23:58:32.917904 16364 net.cpp:157] Top shape: 1 128 28 28 (100352)
I0428 23:58:32.917904 16364 net.cpp:165] Memory required for data: 133066764
I0428 23:58:32.917904 16364 layer_factory.hpp:77] Creating layer res3b_branch2b
I0428 23:58:32.917904 16364 net.cpp:100] Creating Layer res3b_branch2b
I0428 23:58:32.917904 16364 net.cpp:444] res3b_branch2b <- res3b_branch2a
I0428 23:58:32.917904 16364 net.cpp:418] res3b_branch2b -> res3b_branch2b
I0428 23:58:32.919899 16364 net.cpp:150] Setting up res3b_branch2b
I0428 23:58:32.919899 16364 net.cpp:157] Top shape: 1 128 28 28 (100352)
I0428 23:58:32.919899 16364 net.cpp:165] Memory required for data: 133468172
I0428 23:58:32.919899 16364 layer_factory.hpp:77] Creating layer bn3b_branch2b
I0428 23:58:32.919899 16364 net.cpp:100] Creating Layer bn3b_branch2b
I0428 23:58:32.919899 16364 net.cpp:444] bn3b_branch2b <- res3b_branch2b
I0428 23:58:32.919899 16364 net.cpp:405] bn3b_branch2b -> res3b_branch2b (in-place)
I0428 23:58:32.919899 16364 net.cpp:150] Setting up bn3b_branch2b
I0428 23:58:32.919899 16364 net.cpp:157] Top shape: 1 128 28 28 (100352)
I0428 23:58:32.919899 16364 net.cpp:165] Memory required for data: 133869580
I0428 23:58:32.919899 16364 layer_factory.hpp:77] Creating layer scale3b_branch2b
I0428 23:58:32.919899 16364 net.cpp:100] Creating Layer scale3b_branch2b
I0428 23:58:32.919899 16364 net.cpp:444] scale3b_branch2b <- res3b_branch2b
I0428 23:58:32.919899 16364 net.cpp:405] scale3b_branch2b -> res3b_branch2b (in-place)
I0428 23:58:32.919899 16364 layer_factory.hpp:77] Creating layer scale3b_branch2b
I0428 23:58:32.919899 16364 net.cpp:150] Setting up scale3b_branch2b
I0428 23:58:32.919899 16364 net.cpp:157] Top shape: 1 128 28 28 (100352)
I0428 23:58:32.919899 16364 net.cpp:165] Memory required for data: 134270988
I0428 23:58:32.919899 16364 layer_factory.hpp:77] Creating layer res3b_branch2b_relu
I0428 23:58:32.919899 16364 net.cpp:100] Creating Layer res3b_branch2b_relu
I0428 23:58:32.919899 16364 net.cpp:444] res3b_branch2b_relu <- res3b_branch2b
I0428 23:58:32.919899 16364 net.cpp:405] res3b_branch2b_relu -> res3b_branch2b (in-place)
I0428 23:58:32.919899 16364 net.cpp:150] Setting up res3b_branch2b_relu
I0428 23:58:32.919899 16364 net.cpp:157] Top shape: 1 128 28 28 (100352)
I0428 23:58:32.919899 16364 net.cpp:165] Memory required for data: 134672396
I0428 23:58:32.919899 16364 layer_factory.hpp:77] Creating layer res3b_branch2c
I0428 23:58:32.919899 16364 net.cpp:100] Creating Layer res3b_branch2c
I0428 23:58:32.919899 16364 net.cpp:444] res3b_branch2c <- res3b_branch2b
I0428 23:58:32.919899 16364 net.cpp:418] res3b_branch2c -> res3b_branch2c
I0428 23:58:32.922890 16364 net.cpp:150] Setting up res3b_branch2c
I0428 23:58:32.922890 16364 net.cpp:157] Top shape: 1 512 28 28 (401408)
I0428 23:58:32.922890 16364 net.cpp:165] Memory required for data: 136278028
I0428 23:58:32.922890 16364 layer_factory.hpp:77] Creating layer bn3b_branch2c
I0428 23:58:32.922890 16364 net.cpp:100] Creating Layer bn3b_branch2c
I0428 23:58:32.922890 16364 net.cpp:444] bn3b_branch2c <- res3b_branch2c
I0428 23:58:32.922890 16364 net.cpp:405] bn3b_branch2c -> res3b_branch2c (in-place)
I0428 23:58:32.922890 16364 net.cpp:150] Setting up bn3b_branch2c
I0428 23:58:32.922890 16364 net.cpp:157] Top shape: 1 512 28 28 (401408)
I0428 23:58:32.922890 16364 net.cpp:165] Memory required for data: 137883660
I0428 23:58:32.922890 16364 layer_factory.hpp:77] Creating layer scale3b_branch2c
I0428 23:58:32.922890 16364 net.cpp:100] Creating Layer scale3b_branch2c
I0428 23:58:32.922890 16364 net.cpp:444] scale3b_branch2c <- res3b_branch2c
I0428 23:58:32.922890 16364 net.cpp:405] scale3b_branch2c -> res3b_branch2c (in-place)
I0428 23:58:32.922890 16364 layer_factory.hpp:77] Creating layer scale3b_branch2c
I0428 23:58:32.922890 16364 net.cpp:150] Setting up scale3b_branch2c
I0428 23:58:32.922890 16364 net.cpp:157] Top shape: 1 512 28 28 (401408)
I0428 23:58:32.922890 16364 net.cpp:165] Memory required for data: 139489292
I0428 23:58:32.922890 16364 layer_factory.hpp:77] Creating layer res3b
I0428 23:58:32.922890 16364 net.cpp:100] Creating Layer res3b
I0428 23:58:32.922890 16364 net.cpp:444] res3b <- res3a_res3a_relu_0_split_1
I0428 23:58:32.922890 16364 net.cpp:444] res3b <- res3b_branch2c
I0428 23:58:32.922890 16364 net.cpp:418] res3b -> res3b
I0428 23:58:32.922890 16364 net.cpp:150] Setting up res3b
I0428 23:58:32.922890 16364 net.cpp:157] Top shape: 1 512 28 28 (401408)
I0428 23:58:32.922890 16364 net.cpp:165] Memory required for data: 141094924
I0428 23:58:32.922890 16364 layer_factory.hpp:77] Creating layer res3b_relu
I0428 23:58:32.922890 16364 net.cpp:100] Creating Layer res3b_relu
I0428 23:58:32.922890 16364 net.cpp:444] res3b_relu <- res3b
I0428 23:58:32.922890 16364 net.cpp:405] res3b_relu -> res3b (in-place)
I0428 23:58:32.922890 16364 net.cpp:150] Setting up res3b_relu
I0428 23:58:32.922890 16364 net.cpp:157] Top shape: 1 512 28 28 (401408)
I0428 23:58:32.922890 16364 net.cpp:165] Memory required for data: 142700556
I0428 23:58:32.922890 16364 layer_factory.hpp:77] Creating layer res3b_res3b_relu_0_split
I0428 23:58:32.922890 16364 net.cpp:100] Creating Layer res3b_res3b_relu_0_split
I0428 23:58:32.922890 16364 net.cpp:444] res3b_res3b_relu_0_split <- res3b
I0428 23:58:32.922890 16364 net.cpp:418] res3b_res3b_relu_0_split -> res3b_res3b_relu_0_split_0
I0428 23:58:32.922890 16364 net.cpp:418] res3b_res3b_relu_0_split -> res3b_res3b_relu_0_split_1
I0428 23:58:32.922890 16364 net.cpp:150] Setting up res3b_res3b_relu_0_split
I0428 23:58:32.922890 16364 net.cpp:157] Top shape: 1 512 28 28 (401408)
I0428 23:58:32.922890 16364 net.cpp:157] Top shape: 1 512 28 28 (401408)
I0428 23:58:32.922890 16364 net.cpp:165] Memory required for data: 145911820
I0428 23:58:32.922890 16364 layer_factory.hpp:77] Creating layer res3c_branch2a
I0428 23:58:32.922890 16364 net.cpp:100] Creating Layer res3c_branch2a
I0428 23:58:32.922890 16364 net.cpp:444] res3c_branch2a <- res3b_res3b_relu_0_split_0
I0428 23:58:32.922890 16364 net.cpp:418] res3c_branch2a -> res3c_branch2a
I0428 23:58:32.924907 16364 net.cpp:150] Setting up res3c_branch2a
I0428 23:58:32.924907 16364 net.cpp:157] Top shape: 1 128 28 28 (100352)
I0428 23:58:32.924907 16364 net.cpp:165] Memory required for data: 146313228
I0428 23:58:32.924907 16364 layer_factory.hpp:77] Creating layer bn3c_branch2a
I0428 23:58:32.924907 16364 net.cpp:100] Creating Layer bn3c_branch2a
I0428 23:58:32.924907 16364 net.cpp:444] bn3c_branch2a <- res3c_branch2a
I0428 23:58:32.924907 16364 net.cpp:405] bn3c_branch2a -> res3c_branch2a (in-place)
I0428 23:58:32.924907 16364 net.cpp:150] Setting up bn3c_branch2a
I0428 23:58:32.924907 16364 net.cpp:157] Top shape: 1 128 28 28 (100352)
I0428 23:58:32.924907 16364 net.cpp:165] Memory required for data: 146714636
I0428 23:58:32.924907 16364 layer_factory.hpp:77] Creating layer scale3c_branch2a
I0428 23:58:32.924907 16364 net.cpp:100] Creating Layer scale3c_branch2a
I0428 23:58:32.924907 16364 net.cpp:444] scale3c_branch2a <- res3c_branch2a
I0428 23:58:32.924907 16364 net.cpp:405] scale3c_branch2a -> res3c_branch2a (in-place)
I0428 23:58:32.924907 16364 layer_factory.hpp:77] Creating layer scale3c_branch2a
I0428 23:58:32.924907 16364 net.cpp:150] Setting up scale3c_branch2a
I0428 23:58:32.924907 16364 net.cpp:157] Top shape: 1 128 28 28 (100352)
I0428 23:58:32.924907 16364 net.cpp:165] Memory required for data: 147116044
I0428 23:58:32.924907 16364 layer_factory.hpp:77] Creating layer res3c_branch2a_relu
I0428 23:58:32.924907 16364 net.cpp:100] Creating Layer res3c_branch2a_relu
I0428 23:58:32.924907 16364 net.cpp:444] res3c_branch2a_relu <- res3c_branch2a
I0428 23:58:32.924907 16364 net.cpp:405] res3c_branch2a_relu -> res3c_branch2a (in-place)
I0428 23:58:32.925884 16364 net.cpp:150] Setting up res3c_branch2a_relu
I0428 23:58:32.925884 16364 net.cpp:157] Top shape: 1 128 28 28 (100352)
I0428 23:58:32.925884 16364 net.cpp:165] Memory required for data: 147517452
I0428 23:58:32.925884 16364 layer_factory.hpp:77] Creating layer res3c_branch2b
I0428 23:58:32.925884 16364 net.cpp:100] Creating Layer res3c_branch2b
I0428 23:58:32.925884 16364 net.cpp:444] res3c_branch2b <- res3c_branch2a
I0428 23:58:32.925884 16364 net.cpp:418] res3c_branch2b -> res3c_branch2b
I0428 23:58:32.927877 16364 net.cpp:150] Setting up res3c_branch2b
I0428 23:58:32.927877 16364 net.cpp:157] Top shape: 1 128 28 28 (100352)
I0428 23:58:32.927877 16364 net.cpp:165] Memory required for data: 147918860
I0428 23:58:32.927877 16364 layer_factory.hpp:77] Creating layer bn3c_branch2b
I0428 23:58:32.927877 16364 net.cpp:100] Creating Layer bn3c_branch2b
I0428 23:58:32.927877 16364 net.cpp:444] bn3c_branch2b <- res3c_branch2b
I0428 23:58:32.927877 16364 net.cpp:405] bn3c_branch2b -> res3c_branch2b (in-place)
I0428 23:58:32.927877 16364 net.cpp:150] Setting up bn3c_branch2b
I0428 23:58:32.927877 16364 net.cpp:157] Top shape: 1 128 28 28 (100352)
I0428 23:58:32.927877 16364 net.cpp:165] Memory required for data: 148320268
I0428 23:58:32.927877 16364 layer_factory.hpp:77] Creating layer scale3c_branch2b
I0428 23:58:32.927877 16364 net.cpp:100] Creating Layer scale3c_branch2b
I0428 23:58:32.927877 16364 net.cpp:444] scale3c_branch2b <- res3c_branch2b
I0428 23:58:32.927877 16364 net.cpp:405] scale3c_branch2b -> res3c_branch2b (in-place)
I0428 23:58:32.927877 16364 layer_factory.hpp:77] Creating layer scale3c_branch2b
I0428 23:58:32.927877 16364 net.cpp:150] Setting up scale3c_branch2b
I0428 23:58:32.927877 16364 net.cpp:157] Top shape: 1 128 28 28 (100352)
I0428 23:58:32.927877 16364 net.cpp:165] Memory required for data: 148721676
I0428 23:58:32.927877 16364 layer_factory.hpp:77] Creating layer res3c_branch2b_relu
I0428 23:58:32.927877 16364 net.cpp:100] Creating Layer res3c_branch2b_relu
I0428 23:58:32.927877 16364 net.cpp:444] res3c_branch2b_relu <- res3c_branch2b
I0428 23:58:32.927877 16364 net.cpp:405] res3c_branch2b_relu -> res3c_branch2b (in-place)
I0428 23:58:32.927877 16364 net.cpp:150] Setting up res3c_branch2b_relu
I0428 23:58:32.927877 16364 net.cpp:157] Top shape: 1 128 28 28 (100352)
I0428 23:58:32.927877 16364 net.cpp:165] Memory required for data: 149123084
I0428 23:58:32.927877 16364 layer_factory.hpp:77] Creating layer res3c_branch2c
I0428 23:58:32.927877 16364 net.cpp:100] Creating Layer res3c_branch2c
I0428 23:58:32.927877 16364 net.cpp:444] res3c_branch2c <- res3c_branch2b
I0428 23:58:32.927877 16364 net.cpp:418] res3c_branch2c -> res3c_branch2c
I0428 23:58:32.928874 16364 net.cpp:150] Setting up res3c_branch2c
I0428 23:58:32.928874 16364 net.cpp:157] Top shape: 1 512 28 28 (401408)
I0428 23:58:32.928874 16364 net.cpp:165] Memory required for data: 150728716
I0428 23:58:32.928874 16364 layer_factory.hpp:77] Creating layer bn3c_branch2c
I0428 23:58:32.928874 16364 net.cpp:100] Creating Layer bn3c_branch2c
I0428 23:58:32.928874 16364 net.cpp:444] bn3c_branch2c <- res3c_branch2c
I0428 23:58:32.928874 16364 net.cpp:405] bn3c_branch2c -> res3c_branch2c (in-place)
I0428 23:58:32.928874 16364 net.cpp:150] Setting up bn3c_branch2c
I0428 23:58:32.928874 16364 net.cpp:157] Top shape: 1 512 28 28 (401408)
I0428 23:58:32.928874 16364 net.cpp:165] Memory required for data: 152334348
I0428 23:58:32.928874 16364 layer_factory.hpp:77] Creating layer scale3c_branch2c
I0428 23:58:32.928874 16364 net.cpp:100] Creating Layer scale3c_branch2c
I0428 23:58:32.928874 16364 net.cpp:444] scale3c_branch2c <- res3c_branch2c
I0428 23:58:32.928874 16364 net.cpp:405] scale3c_branch2c -> res3c_branch2c (in-place)
I0428 23:58:32.928874 16364 layer_factory.hpp:77] Creating layer scale3c_branch2c
I0428 23:58:32.928874 16364 net.cpp:150] Setting up scale3c_branch2c
I0428 23:58:32.929872 16364 net.cpp:157] Top shape: 1 512 28 28 (401408)
I0428 23:58:32.929872 16364 net.cpp:165] Memory required for data: 153939980
I0428 23:58:32.929872 16364 layer_factory.hpp:77] Creating layer res3c
I0428 23:58:32.929872 16364 net.cpp:100] Creating Layer res3c
I0428 23:58:32.929872 16364 net.cpp:444] res3c <- res3b_res3b_relu_0_split_1
I0428 23:58:32.929872 16364 net.cpp:444] res3c <- res3c_branch2c
I0428 23:58:32.929872 16364 net.cpp:418] res3c -> res3c
I0428 23:58:32.929872 16364 net.cpp:150] Setting up res3c
I0428 23:58:32.929872 16364 net.cpp:157] Top shape: 1 512 28 28 (401408)
I0428 23:58:32.929872 16364 net.cpp:165] Memory required for data: 155545612
I0428 23:58:32.929872 16364 layer_factory.hpp:77] Creating layer res3c_relu
I0428 23:58:32.929872 16364 net.cpp:100] Creating Layer res3c_relu
I0428 23:58:32.929872 16364 net.cpp:444] res3c_relu <- res3c
I0428 23:58:32.929872 16364 net.cpp:405] res3c_relu -> res3c (in-place)
I0428 23:58:32.929872 16364 net.cpp:150] Setting up res3c_relu
I0428 23:58:32.929872 16364 net.cpp:157] Top shape: 1 512 28 28 (401408)
I0428 23:58:32.929872 16364 net.cpp:165] Memory required for data: 157151244
I0428 23:58:32.929872 16364 layer_factory.hpp:77] Creating layer res3c_res3c_relu_0_split
I0428 23:58:32.929872 16364 net.cpp:100] Creating Layer res3c_res3c_relu_0_split
I0428 23:58:32.929872 16364 net.cpp:444] res3c_res3c_relu_0_split <- res3c
I0428 23:58:32.929872 16364 net.cpp:418] res3c_res3c_relu_0_split -> res3c_res3c_relu_0_split_0
I0428 23:58:32.929872 16364 net.cpp:418] res3c_res3c_relu_0_split -> res3c_res3c_relu_0_split_1
I0428 23:58:32.929872 16364 net.cpp:150] Setting up res3c_res3c_relu_0_split
I0428 23:58:32.929872 16364 net.cpp:157] Top shape: 1 512 28 28 (401408)
I0428 23:58:32.929872 16364 net.cpp:157] Top shape: 1 512 28 28 (401408)
I0428 23:58:32.929872 16364 net.cpp:165] Memory required for data: 160362508
I0428 23:58:32.929872 16364 layer_factory.hpp:77] Creating layer res3d_branch2a
I0428 23:58:32.929872 16364 net.cpp:100] Creating Layer res3d_branch2a
I0428 23:58:32.929872 16364 net.cpp:444] res3d_branch2a <- res3c_res3c_relu_0_split_0
I0428 23:58:32.929872 16364 net.cpp:418] res3d_branch2a -> res3d_branch2a
I0428 23:58:32.931888 16364 net.cpp:150] Setting up res3d_branch2a
I0428 23:58:32.931888 16364 net.cpp:157] Top shape: 1 128 28 28 (100352)
I0428 23:58:32.931888 16364 net.cpp:165] Memory required for data: 160763916
I0428 23:58:32.931888 16364 layer_factory.hpp:77] Creating layer bn3d_branch2a
I0428 23:58:32.931888 16364 net.cpp:100] Creating Layer bn3d_branch2a
I0428 23:58:32.931888 16364 net.cpp:444] bn3d_branch2a <- res3d_branch2a
I0428 23:58:32.931888 16364 net.cpp:405] bn3d_branch2a -> res3d_branch2a (in-place)
I0428 23:58:32.931888 16364 net.cpp:150] Setting up bn3d_branch2a
I0428 23:58:32.931888 16364 net.cpp:157] Top shape: 1 128 28 28 (100352)
I0428 23:58:32.931888 16364 net.cpp:165] Memory required for data: 161165324
I0428 23:58:32.931888 16364 layer_factory.hpp:77] Creating layer scale3d_branch2a
I0428 23:58:32.931888 16364 net.cpp:100] Creating Layer scale3d_branch2a
I0428 23:58:32.931888 16364 net.cpp:444] scale3d_branch2a <- res3d_branch2a
I0428 23:58:32.931888 16364 net.cpp:405] scale3d_branch2a -> res3d_branch2a (in-place)
I0428 23:58:32.931888 16364 layer_factory.hpp:77] Creating layer scale3d_branch2a
I0428 23:58:32.931888 16364 net.cpp:150] Setting up scale3d_branch2a
I0428 23:58:32.931888 16364 net.cpp:157] Top shape: 1 128 28 28 (100352)
I0428 23:58:32.931888 16364 net.cpp:165] Memory required for data: 161566732
I0428 23:58:32.931888 16364 layer_factory.hpp:77] Creating layer res3d_branch2a_relu
I0428 23:58:32.931888 16364 net.cpp:100] Creating Layer res3d_branch2a_relu
I0428 23:58:32.931888 16364 net.cpp:444] res3d_branch2a_relu <- res3d_branch2a
I0428 23:58:32.931888 16364 net.cpp:405] res3d_branch2a_relu -> res3d_branch2a (in-place)
I0428 23:58:32.931888 16364 net.cpp:150] Setting up res3d_branch2a_relu
I0428 23:58:32.931888 16364 net.cpp:157] Top shape: 1 128 28 28 (100352)
I0428 23:58:32.931888 16364 net.cpp:165] Memory required for data: 161968140
I0428 23:58:32.931888 16364 layer_factory.hpp:77] Creating layer res3d_branch2b
I0428 23:58:32.931888 16364 net.cpp:100] Creating Layer res3d_branch2b
I0428 23:58:32.931888 16364 net.cpp:444] res3d_branch2b <- res3d_branch2a
I0428 23:58:32.931888 16364 net.cpp:418] res3d_branch2b -> res3d_branch2b
I0428 23:58:32.932864 16364 net.cpp:150] Setting up res3d_branch2b
I0428 23:58:32.932864 16364 net.cpp:157] Top shape: 1 128 28 28 (100352)
I0428 23:58:32.932864 16364 net.cpp:165] Memory required for data: 162369548
I0428 23:58:32.932864 16364 layer_factory.hpp:77] Creating layer bn3d_branch2b
I0428 23:58:32.932864 16364 net.cpp:100] Creating Layer bn3d_branch2b
I0428 23:58:32.932864 16364 net.cpp:444] bn3d_branch2b <- res3d_branch2b
I0428 23:58:32.932864 16364 net.cpp:405] bn3d_branch2b -> res3d_branch2b (in-place)
I0428 23:58:32.932864 16364 net.cpp:150] Setting up bn3d_branch2b
I0428 23:58:32.932864 16364 net.cpp:157] Top shape: 1 128 28 28 (100352)
I0428 23:58:32.932864 16364 net.cpp:165] Memory required for data: 162770956
I0428 23:58:32.932864 16364 layer_factory.hpp:77] Creating layer scale3d_branch2b
I0428 23:58:32.932864 16364 net.cpp:100] Creating Layer scale3d_branch2b
I0428 23:58:32.932864 16364 net.cpp:444] scale3d_branch2b <- res3d_branch2b
I0428 23:58:32.932864 16364 net.cpp:405] scale3d_branch2b -> res3d_branch2b (in-place)
I0428 23:58:32.933884 16364 layer_factory.hpp:77] Creating layer scale3d_branch2b
I0428 23:58:32.933884 16364 net.cpp:150] Setting up scale3d_branch2b
I0428 23:58:32.933884 16364 net.cpp:157] Top shape: 1 128 28 28 (100352)
I0428 23:58:32.933884 16364 net.cpp:165] Memory required for data: 163172364
I0428 23:58:32.933884 16364 layer_factory.hpp:77] Creating layer res3d_branch2b_relu
I0428 23:58:32.933884 16364 net.cpp:100] Creating Layer res3d_branch2b_relu
I0428 23:58:32.933884 16364 net.cpp:444] res3d_branch2b_relu <- res3d_branch2b
I0428 23:58:32.933884 16364 net.cpp:405] res3d_branch2b_relu -> res3d_branch2b (in-place)
I0428 23:58:32.933884 16364 net.cpp:150] Setting up res3d_branch2b_relu
I0428 23:58:32.933884 16364 net.cpp:157] Top shape: 1 128 28 28 (100352)
I0428 23:58:32.933884 16364 net.cpp:165] Memory required for data: 163573772
I0428 23:58:32.933884 16364 layer_factory.hpp:77] Creating layer res3d_branch2c
I0428 23:58:32.933884 16364 net.cpp:100] Creating Layer res3d_branch2c
I0428 23:58:32.933884 16364 net.cpp:444] res3d_branch2c <- res3d_branch2b
I0428 23:58:32.933884 16364 net.cpp:418] res3d_branch2c -> res3d_branch2c
I0428 23:58:32.935856 16364 net.cpp:150] Setting up res3d_branch2c
I0428 23:58:32.935856 16364 net.cpp:157] Top shape: 1 512 28 28 (401408)
I0428 23:58:32.935856 16364 net.cpp:165] Memory required for data: 165179404
I0428 23:58:32.935856 16364 layer_factory.hpp:77] Creating layer bn3d_branch2c
I0428 23:58:32.935856 16364 net.cpp:100] Creating Layer bn3d_branch2c
I0428 23:58:32.935856 16364 net.cpp:444] bn3d_branch2c <- res3d_branch2c
I0428 23:58:32.935856 16364 net.cpp:405] bn3d_branch2c -> res3d_branch2c (in-place)
I0428 23:58:32.935856 16364 net.cpp:150] Setting up bn3d_branch2c
I0428 23:58:32.935856 16364 net.cpp:157] Top shape: 1 512 28 28 (401408)
I0428 23:58:32.935856 16364 net.cpp:165] Memory required for data: 166785036
I0428 23:58:32.935856 16364 layer_factory.hpp:77] Creating layer scale3d_branch2c
I0428 23:58:32.935856 16364 net.cpp:100] Creating Layer scale3d_branch2c
I0428 23:58:32.935856 16364 net.cpp:444] scale3d_branch2c <- res3d_branch2c
I0428 23:58:32.935856 16364 net.cpp:405] scale3d_branch2c -> res3d_branch2c (in-place)
I0428 23:58:32.935856 16364 layer_factory.hpp:77] Creating layer scale3d_branch2c
I0428 23:58:32.935856 16364 net.cpp:150] Setting up scale3d_branch2c
I0428 23:58:32.935856 16364 net.cpp:157] Top shape: 1 512 28 28 (401408)
I0428 23:58:32.935856 16364 net.cpp:165] Memory required for data: 168390668
I0428 23:58:32.935856 16364 layer_factory.hpp:77] Creating layer res3d
I0428 23:58:32.935856 16364 net.cpp:100] Creating Layer res3d
I0428 23:58:32.935856 16364 net.cpp:444] res3d <- res3c_res3c_relu_0_split_1
I0428 23:58:32.935856 16364 net.cpp:444] res3d <- res3d_branch2c
I0428 23:58:32.935856 16364 net.cpp:418] res3d -> res3d
I0428 23:58:32.935856 16364 net.cpp:150] Setting up res3d
I0428 23:58:32.935856 16364 net.cpp:157] Top shape: 1 512 28 28 (401408)
I0428 23:58:32.935856 16364 net.cpp:165] Memory required for data: 169996300
I0428 23:58:32.935856 16364 layer_factory.hpp:77] Creating layer res3d_relu
I0428 23:58:32.935856 16364 net.cpp:100] Creating Layer res3d_relu
I0428 23:58:32.935856 16364 net.cpp:444] res3d_relu <- res3d
I0428 23:58:32.935856 16364 net.cpp:405] res3d_relu -> res3d (in-place)
I0428 23:58:32.936853 16364 net.cpp:150] Setting up res3d_relu
I0428 23:58:32.936853 16364 net.cpp:157] Top shape: 1 512 28 28 (401408)
I0428 23:58:32.936853 16364 net.cpp:165] Memory required for data: 171601932
I0428 23:58:32.936853 16364 layer_factory.hpp:77] Creating layer res3d_res3d_relu_0_split
I0428 23:58:32.936853 16364 net.cpp:100] Creating Layer res3d_res3d_relu_0_split
I0428 23:58:32.936853 16364 net.cpp:444] res3d_res3d_relu_0_split <- res3d
I0428 23:58:32.936853 16364 net.cpp:418] res3d_res3d_relu_0_split -> res3d_res3d_relu_0_split_0
I0428 23:58:32.936853 16364 net.cpp:418] res3d_res3d_relu_0_split -> res3d_res3d_relu_0_split_1
I0428 23:58:32.936853 16364 net.cpp:150] Setting up res3d_res3d_relu_0_split
I0428 23:58:32.936853 16364 net.cpp:157] Top shape: 1 512 28 28 (401408)
I0428 23:58:32.936853 16364 net.cpp:157] Top shape: 1 512 28 28 (401408)
I0428 23:58:32.936853 16364 net.cpp:165] Memory required for data: 174813196
I0428 23:58:32.936853 16364 layer_factory.hpp:77] Creating layer res4a_branch1
I0428 23:58:32.936853 16364 net.cpp:100] Creating Layer res4a_branch1
I0428 23:58:32.936853 16364 net.cpp:444] res4a_branch1 <- res3d_res3d_relu_0_split_0
I0428 23:58:32.936853 16364 net.cpp:418] res4a_branch1 -> res4a_branch1
I0428 23:58:32.939862 16364 net.cpp:150] Setting up res4a_branch1
I0428 23:58:32.939862 16364 net.cpp:157] Top shape: 1 1024 14 14 (200704)
I0428 23:58:32.939862 16364 net.cpp:165] Memory required for data: 175616012
I0428 23:58:32.939862 16364 layer_factory.hpp:77] Creating layer bn4a_branch1
I0428 23:58:32.939862 16364 net.cpp:100] Creating Layer bn4a_branch1
I0428 23:58:32.939862 16364 net.cpp:444] bn4a_branch1 <- res4a_branch1
I0428 23:58:32.939862 16364 net.cpp:405] bn4a_branch1 -> res4a_branch1 (in-place)
I0428 23:58:32.939862 16364 net.cpp:150] Setting up bn4a_branch1
I0428 23:58:32.939862 16364 net.cpp:157] Top shape: 1 1024 14 14 (200704)
I0428 23:58:32.939862 16364 net.cpp:165] Memory required for data: 176418828
I0428 23:58:32.939862 16364 layer_factory.hpp:77] Creating layer scale4a_branch1
I0428 23:58:32.939862 16364 net.cpp:100] Creating Layer scale4a_branch1
I0428 23:58:32.939862 16364 net.cpp:444] scale4a_branch1 <- res4a_branch1
I0428 23:58:32.939862 16364 net.cpp:405] scale4a_branch1 -> res4a_branch1 (in-place)
I0428 23:58:32.939862 16364 layer_factory.hpp:77] Creating layer scale4a_branch1
I0428 23:58:32.939862 16364 net.cpp:150] Setting up scale4a_branch1
I0428 23:58:32.939862 16364 net.cpp:157] Top shape: 1 1024 14 14 (200704)
I0428 23:58:32.939862 16364 net.cpp:165] Memory required for data: 177221644
I0428 23:58:32.939862 16364 layer_factory.hpp:77] Creating layer res4a_branch2a
I0428 23:58:32.939862 16364 net.cpp:100] Creating Layer res4a_branch2a
I0428 23:58:32.939862 16364 net.cpp:444] res4a_branch2a <- res3d_res3d_relu_0_split_1
I0428 23:58:32.939862 16364 net.cpp:418] res4a_branch2a -> res4a_branch2a
I0428 23:58:32.940842 16364 net.cpp:150] Setting up res4a_branch2a
I0428 23:58:32.940842 16364 net.cpp:157] Top shape: 1 256 14 14 (50176)
I0428 23:58:32.940842 16364 net.cpp:165] Memory required for data: 177422348
I0428 23:58:32.940842 16364 layer_factory.hpp:77] Creating layer bn4a_branch2a
I0428 23:58:32.940842 16364 net.cpp:100] Creating Layer bn4a_branch2a
I0428 23:58:32.940842 16364 net.cpp:444] bn4a_branch2a <- res4a_branch2a
I0428 23:58:32.940842 16364 net.cpp:405] bn4a_branch2a -> res4a_branch2a (in-place)
I0428 23:58:32.940842 16364 net.cpp:150] Setting up bn4a_branch2a
I0428 23:58:32.940842 16364 net.cpp:157] Top shape: 1 256 14 14 (50176)
I0428 23:58:32.940842 16364 net.cpp:165] Memory required for data: 177623052
I0428 23:58:32.940842 16364 layer_factory.hpp:77] Creating layer scale4a_branch2a
I0428 23:58:32.940842 16364 net.cpp:100] Creating Layer scale4a_branch2a
I0428 23:58:32.940842 16364 net.cpp:444] scale4a_branch2a <- res4a_branch2a
I0428 23:58:32.940842 16364 net.cpp:405] scale4a_branch2a -> res4a_branch2a (in-place)
I0428 23:58:32.940842 16364 layer_factory.hpp:77] Creating layer scale4a_branch2a
I0428 23:58:32.940842 16364 net.cpp:150] Setting up scale4a_branch2a
I0428 23:58:32.940842 16364 net.cpp:157] Top shape: 1 256 14 14 (50176)
I0428 23:58:32.940842 16364 net.cpp:165] Memory required for data: 177823756
I0428 23:58:32.940842 16364 layer_factory.hpp:77] Creating layer res4a_branch2a_relu
I0428 23:58:32.940842 16364 net.cpp:100] Creating Layer res4a_branch2a_relu
I0428 23:58:32.940842 16364 net.cpp:444] res4a_branch2a_relu <- res4a_branch2a
I0428 23:58:32.940842 16364 net.cpp:405] res4a_branch2a_relu -> res4a_branch2a (in-place)
I0428 23:58:32.940842 16364 net.cpp:150] Setting up res4a_branch2a_relu
I0428 23:58:32.940842 16364 net.cpp:157] Top shape: 1 256 14 14 (50176)
I0428 23:58:32.940842 16364 net.cpp:165] Memory required for data: 178024460
I0428 23:58:32.941857 16364 layer_factory.hpp:77] Creating layer res4a_branch2b
I0428 23:58:32.941857 16364 net.cpp:100] Creating Layer res4a_branch2b
I0428 23:58:32.941857 16364 net.cpp:444] res4a_branch2b <- res4a_branch2a
I0428 23:58:32.941857 16364 net.cpp:418] res4a_branch2b -> res4a_branch2b
I0428 23:58:32.943835 16364 net.cpp:150] Setting up res4a_branch2b
I0428 23:58:32.943835 16364 net.cpp:157] Top shape: 1 256 14 14 (50176)
I0428 23:58:32.943835 16364 net.cpp:165] Memory required for data: 178225164
I0428 23:58:32.943835 16364 layer_factory.hpp:77] Creating layer bn4a_branch2b
I0428 23:58:32.943835 16364 net.cpp:100] Creating Layer bn4a_branch2b
I0428 23:58:32.943835 16364 net.cpp:444] bn4a_branch2b <- res4a_branch2b
I0428 23:58:32.943835 16364 net.cpp:405] bn4a_branch2b -> res4a_branch2b (in-place)
I0428 23:58:32.943835 16364 net.cpp:150] Setting up bn4a_branch2b
I0428 23:58:32.943835 16364 net.cpp:157] Top shape: 1 256 14 14 (50176)
I0428 23:58:32.943835 16364 net.cpp:165] Memory required for data: 178425868
I0428 23:58:32.943835 16364 layer_factory.hpp:77] Creating layer scale4a_branch2b
I0428 23:58:32.943835 16364 net.cpp:100] Creating Layer scale4a_branch2b
I0428 23:58:32.943835 16364 net.cpp:444] scale4a_branch2b <- res4a_branch2b
I0428 23:58:32.943835 16364 net.cpp:405] scale4a_branch2b -> res4a_branch2b (in-place)
I0428 23:58:32.943835 16364 layer_factory.hpp:77] Creating layer scale4a_branch2b
I0428 23:58:32.943835 16364 net.cpp:150] Setting up scale4a_branch2b
I0428 23:58:32.943835 16364 net.cpp:157] Top shape: 1 256 14 14 (50176)
I0428 23:58:32.943835 16364 net.cpp:165] Memory required for data: 178626572
I0428 23:58:32.943835 16364 layer_factory.hpp:77] Creating layer res4a_branch2b_relu
I0428 23:58:32.943835 16364 net.cpp:100] Creating Layer res4a_branch2b_relu
I0428 23:58:32.943835 16364 net.cpp:444] res4a_branch2b_relu <- res4a_branch2b
I0428 23:58:32.943835 16364 net.cpp:405] res4a_branch2b_relu -> res4a_branch2b (in-place)
I0428 23:58:32.943835 16364 net.cpp:150] Setting up res4a_branch2b_relu
I0428 23:58:32.943835 16364 net.cpp:157] Top shape: 1 256 14 14 (50176)
I0428 23:58:32.943835 16364 net.cpp:165] Memory required for data: 178827276
I0428 23:58:32.943835 16364 layer_factory.hpp:77] Creating layer res4a_branch2c
I0428 23:58:32.943835 16364 net.cpp:100] Creating Layer res4a_branch2c
I0428 23:58:32.943835 16364 net.cpp:444] res4a_branch2c <- res4a_branch2b
I0428 23:58:32.943835 16364 net.cpp:418] res4a_branch2c -> res4a_branch2c
I0428 23:58:32.945848 16364 net.cpp:150] Setting up res4a_branch2c
I0428 23:58:32.945848 16364 net.cpp:157] Top shape: 1 1024 14 14 (200704)
I0428 23:58:32.945848 16364 net.cpp:165] Memory required for data: 179630092
I0428 23:58:32.945848 16364 layer_factory.hpp:77] Creating layer bn4a_branch2c
I0428 23:58:32.945848 16364 net.cpp:100] Creating Layer bn4a_branch2c
I0428 23:58:32.945848 16364 net.cpp:444] bn4a_branch2c <- res4a_branch2c
I0428 23:58:32.945848 16364 net.cpp:405] bn4a_branch2c -> res4a_branch2c (in-place)
I0428 23:58:32.945848 16364 net.cpp:150] Setting up bn4a_branch2c
I0428 23:58:32.945848 16364 net.cpp:157] Top shape: 1 1024 14 14 (200704)
I0428 23:58:32.945848 16364 net.cpp:165] Memory required for data: 180432908
I0428 23:58:32.945848 16364 layer_factory.hpp:77] Creating layer scale4a_branch2c
I0428 23:58:32.945848 16364 net.cpp:100] Creating Layer scale4a_branch2c
I0428 23:58:32.945848 16364 net.cpp:444] scale4a_branch2c <- res4a_branch2c
I0428 23:58:32.945848 16364 net.cpp:405] scale4a_branch2c -> res4a_branch2c (in-place)
I0428 23:58:32.945848 16364 layer_factory.hpp:77] Creating layer scale4a_branch2c
I0428 23:58:32.946846 16364 net.cpp:150] Setting up scale4a_branch2c
I0428 23:58:32.946846 16364 net.cpp:157] Top shape: 1 1024 14 14 (200704)
I0428 23:58:32.946846 16364 net.cpp:165] Memory required for data: 181235724
I0428 23:58:32.946846 16364 layer_factory.hpp:77] Creating layer res4a
I0428 23:58:32.946846 16364 net.cpp:100] Creating Layer res4a
I0428 23:58:32.946846 16364 net.cpp:444] res4a <- res4a_branch1
I0428 23:58:32.946846 16364 net.cpp:444] res4a <- res4a_branch2c
I0428 23:58:32.946846 16364 net.cpp:418] res4a -> res4a
I0428 23:58:32.946846 16364 net.cpp:150] Setting up res4a
I0428 23:58:32.946846 16364 net.cpp:157] Top shape: 1 1024 14 14 (200704)
I0428 23:58:32.946846 16364 net.cpp:165] Memory required for data: 182038540
I0428 23:58:32.946846 16364 layer_factory.hpp:77] Creating layer res4a_relu
I0428 23:58:32.946846 16364 net.cpp:100] Creating Layer res4a_relu
I0428 23:58:32.946846 16364 net.cpp:444] res4a_relu <- res4a
I0428 23:58:32.946846 16364 net.cpp:405] res4a_relu -> res4a (in-place)
I0428 23:58:32.946846 16364 net.cpp:150] Setting up res4a_relu
I0428 23:58:32.946846 16364 net.cpp:157] Top shape: 1 1024 14 14 (200704)
I0428 23:58:32.946846 16364 net.cpp:165] Memory required for data: 182841356
I0428 23:58:32.946846 16364 layer_factory.hpp:77] Creating layer res4a_res4a_relu_0_split
I0428 23:58:32.946846 16364 net.cpp:100] Creating Layer res4a_res4a_relu_0_split
I0428 23:58:32.946846 16364 net.cpp:444] res4a_res4a_relu_0_split <- res4a
I0428 23:58:32.946846 16364 net.cpp:418] res4a_res4a_relu_0_split -> res4a_res4a_relu_0_split_0
I0428 23:58:32.946846 16364 net.cpp:418] res4a_res4a_relu_0_split -> res4a_res4a_relu_0_split_1
I0428 23:58:32.946846 16364 net.cpp:150] Setting up res4a_res4a_relu_0_split
I0428 23:58:32.946846 16364 net.cpp:157] Top shape: 1 1024 14 14 (200704)
I0428 23:58:32.946846 16364 net.cpp:157] Top shape: 1 1024 14 14 (200704)
I0428 23:58:32.946846 16364 net.cpp:165] Memory required for data: 184446988
I0428 23:58:32.946846 16364 layer_factory.hpp:77] Creating layer res4b_branch2a
I0428 23:58:32.946846 16364 net.cpp:100] Creating Layer res4b_branch2a
I0428 23:58:32.946846 16364 net.cpp:444] res4b_branch2a <- res4a_res4a_relu_0_split_0
I0428 23:58:32.946846 16364 net.cpp:418] res4b_branch2a -> res4b_branch2a
I0428 23:58:32.948838 16364 net.cpp:150] Setting up res4b_branch2a
I0428 23:58:32.948838 16364 net.cpp:157] Top shape: 1 256 14 14 (50176)
I0428 23:58:32.948838 16364 net.cpp:165] Memory required for data: 184647692
I0428 23:58:32.948838 16364 layer_factory.hpp:77] Creating layer bn4b_branch2a
I0428 23:58:32.948838 16364 net.cpp:100] Creating Layer bn4b_branch2a
I0428 23:58:32.948838 16364 net.cpp:444] bn4b_branch2a <- res4b_branch2a
I0428 23:58:32.948838 16364 net.cpp:405] bn4b_branch2a -> res4b_branch2a (in-place)
I0428 23:58:32.948838 16364 net.cpp:150] Setting up bn4b_branch2a
I0428 23:58:32.948838 16364 net.cpp:157] Top shape: 1 256 14 14 (50176)
I0428 23:58:32.948838 16364 net.cpp:165] Memory required for data: 184848396
I0428 23:58:32.948838 16364 layer_factory.hpp:77] Creating layer scale4b_branch2a
I0428 23:58:32.948838 16364 net.cpp:100] Creating Layer scale4b_branch2a
I0428 23:58:32.948838 16364 net.cpp:444] scale4b_branch2a <- res4b_branch2a
I0428 23:58:32.948838 16364 net.cpp:405] scale4b_branch2a -> res4b_branch2a (in-place)
I0428 23:58:32.948838 16364 layer_factory.hpp:77] Creating layer scale4b_branch2a
I0428 23:58:32.948838 16364 net.cpp:150] Setting up scale4b_branch2a
I0428 23:58:32.948838 16364 net.cpp:157] Top shape: 1 256 14 14 (50176)
I0428 23:58:32.948838 16364 net.cpp:165] Memory required for data: 185049100
I0428 23:58:32.948838 16364 layer_factory.hpp:77] Creating layer res4b_branch2a_relu
I0428 23:58:32.948838 16364 net.cpp:100] Creating Layer res4b_branch2a_relu
I0428 23:58:32.948838 16364 net.cpp:444] res4b_branch2a_relu <- res4b_branch2a
I0428 23:58:32.948838 16364 net.cpp:405] res4b_branch2a_relu -> res4b_branch2a (in-place)
I0428 23:58:32.948838 16364 net.cpp:150] Setting up res4b_branch2a_relu
I0428 23:58:32.948838 16364 net.cpp:157] Top shape: 1 256 14 14 (50176)
I0428 23:58:32.948838 16364 net.cpp:165] Memory required for data: 185249804
I0428 23:58:32.948838 16364 layer_factory.hpp:77] Creating layer res4b_branch2b
I0428 23:58:32.948838 16364 net.cpp:100] Creating Layer res4b_branch2b
I0428 23:58:32.948838 16364 net.cpp:444] res4b_branch2b <- res4b_branch2a
I0428 23:58:32.948838 16364 net.cpp:418] res4b_branch2b -> res4b_branch2b
I0428 23:58:32.951813 16364 net.cpp:150] Setting up res4b_branch2b
I0428 23:58:32.951813 16364 net.cpp:157] Top shape: 1 256 14 14 (50176)
I0428 23:58:32.951813 16364 net.cpp:165] Memory required for data: 185450508
I0428 23:58:32.951813 16364 layer_factory.hpp:77] Creating layer bn4b_branch2b
I0428 23:58:32.951813 16364 net.cpp:100] Creating Layer bn4b_branch2b
I0428 23:58:32.951813 16364 net.cpp:444] bn4b_branch2b <- res4b_branch2b
I0428 23:58:32.951813 16364 net.cpp:405] bn4b_branch2b -> res4b_branch2b (in-place)
I0428 23:58:32.951813 16364 net.cpp:150] Setting up bn4b_branch2b
I0428 23:58:32.952841 16364 net.cpp:157] Top shape: 1 256 14 14 (50176)
I0428 23:58:32.952841 16364 net.cpp:165] Memory required for data: 185651212
I0428 23:58:32.952841 16364 layer_factory.hpp:77] Creating layer scale4b_branch2b
I0428 23:58:32.952841 16364 net.cpp:100] Creating Layer scale4b_branch2b
I0428 23:58:32.952841 16364 net.cpp:444] scale4b_branch2b <- res4b_branch2b
I0428 23:58:32.952841 16364 net.cpp:405] scale4b_branch2b -> res4b_branch2b (in-place)
I0428 23:58:32.952841 16364 layer_factory.hpp:77] Creating layer scale4b_branch2b
I0428 23:58:32.952841 16364 net.cpp:150] Setting up scale4b_branch2b
I0428 23:58:32.952841 16364 net.cpp:157] Top shape: 1 256 14 14 (50176)
I0428 23:58:32.952841 16364 net.cpp:165] Memory required for data: 185851916
I0428 23:58:32.952841 16364 layer_factory.hpp:77] Creating layer res4b_branch2b_relu
I0428 23:58:32.952841 16364 net.cpp:100] Creating Layer res4b_branch2b_relu
I0428 23:58:32.952841 16364 net.cpp:444] res4b_branch2b_relu <- res4b_branch2b
I0428 23:58:32.952841 16364 net.cpp:405] res4b_branch2b_relu -> res4b_branch2b (in-place)
I0428 23:58:32.952841 16364 net.cpp:150] Setting up res4b_branch2b_relu
I0428 23:58:32.952841 16364 net.cpp:157] Top shape: 1 256 14 14 (50176)
I0428 23:58:32.952841 16364 net.cpp:165] Memory required for data: 186052620
I0428 23:58:32.952841 16364 layer_factory.hpp:77] Creating layer res4b_branch2c
I0428 23:58:32.952841 16364 net.cpp:100] Creating Layer res4b_branch2c
I0428 23:58:32.952841 16364 net.cpp:444] res4b_branch2c <- res4b_branch2b
I0428 23:58:32.952841 16364 net.cpp:418] res4b_branch2c -> res4b_branch2c
I0428 23:58:32.954834 16364 net.cpp:150] Setting up res4b_branch2c
I0428 23:58:32.954834 16364 net.cpp:157] Top shape: 1 1024 14 14 (200704)
I0428 23:58:32.954834 16364 net.cpp:165] Memory required for data: 186855436
I0428 23:58:32.954834 16364 layer_factory.hpp:77] Creating layer bn4b_branch2c
I0428 23:58:32.954834 16364 net.cpp:100] Creating Layer bn4b_branch2c
I0428 23:58:32.954834 16364 net.cpp:444] bn4b_branch2c <- res4b_branch2c
I0428 23:58:32.954834 16364 net.cpp:405] bn4b_branch2c -> res4b_branch2c (in-place)
I0428 23:58:32.954834 16364 net.cpp:150] Setting up bn4b_branch2c
I0428 23:58:32.954834 16364 net.cpp:157] Top shape: 1 1024 14 14 (200704)
I0428 23:58:32.954834 16364 net.cpp:165] Memory required for data: 187658252
I0428 23:58:32.954834 16364 layer_factory.hpp:77] Creating layer scale4b_branch2c
I0428 23:58:32.954834 16364 net.cpp:100] Creating Layer scale4b_branch2c
I0428 23:58:32.954834 16364 net.cpp:444] scale4b_branch2c <- res4b_branch2c
I0428 23:58:32.954834 16364 net.cpp:405] scale4b_branch2c -> res4b_branch2c (in-place)
I0428 23:58:32.954834 16364 layer_factory.hpp:77] Creating layer scale4b_branch2c
I0428 23:58:32.954834 16364 net.cpp:150] Setting up scale4b_branch2c
I0428 23:58:32.954834 16364 net.cpp:157] Top shape: 1 1024 14 14 (200704)
I0428 23:58:32.954834 16364 net.cpp:165] Memory required for data: 188461068
I0428 23:58:32.954834 16364 layer_factory.hpp:77] Creating layer res4b
I0428 23:58:32.954834 16364 net.cpp:100] Creating Layer res4b
I0428 23:58:32.954834 16364 net.cpp:444] res4b <- res4a_res4a_relu_0_split_1
I0428 23:58:32.954834 16364 net.cpp:444] res4b <- res4b_branch2c
I0428 23:58:32.954834 16364 net.cpp:418] res4b -> res4b
I0428 23:58:32.954834 16364 net.cpp:150] Setting up res4b
I0428 23:58:32.954834 16364 net.cpp:157] Top shape: 1 1024 14 14 (200704)
I0428 23:58:32.954834 16364 net.cpp:165] Memory required for data: 189263884
I0428 23:58:32.954834 16364 layer_factory.hpp:77] Creating layer res4b_relu
I0428 23:58:32.954834 16364 net.cpp:100] Creating Layer res4b_relu
I0428 23:58:32.954834 16364 net.cpp:444] res4b_relu <- res4b
I0428 23:58:32.954834 16364 net.cpp:405] res4b_relu -> res4b (in-place)
I0428 23:58:32.954834 16364 net.cpp:150] Setting up res4b_relu
I0428 23:58:32.954834 16364 net.cpp:157] Top shape: 1 1024 14 14 (200704)
I0428 23:58:32.954834 16364 net.cpp:165] Memory required for data: 190066700
I0428 23:58:32.954834 16364 layer_factory.hpp:77] Creating layer res4b_res4b_relu_0_split
I0428 23:58:32.954834 16364 net.cpp:100] Creating Layer res4b_res4b_relu_0_split
I0428 23:58:32.954834 16364 net.cpp:444] res4b_res4b_relu_0_split <- res4b
I0428 23:58:32.954834 16364 net.cpp:418] res4b_res4b_relu_0_split -> res4b_res4b_relu_0_split_0
I0428 23:58:32.954834 16364 net.cpp:418] res4b_res4b_relu_0_split -> res4b_res4b_relu_0_split_1
I0428 23:58:32.954834 16364 net.cpp:150] Setting up res4b_res4b_relu_0_split
I0428 23:58:32.954834 16364 net.cpp:157] Top shape: 1 1024 14 14 (200704)
I0428 23:58:32.954834 16364 net.cpp:157] Top shape: 1 1024 14 14 (200704)
I0428 23:58:32.954834 16364 net.cpp:165] Memory required for data: 191672332
I0428 23:58:32.954834 16364 layer_factory.hpp:77] Creating layer res4c_branch2a
I0428 23:58:32.954834 16364 net.cpp:100] Creating Layer res4c_branch2a
I0428 23:58:32.954834 16364 net.cpp:444] res4c_branch2a <- res4b_res4b_relu_0_split_0
I0428 23:58:32.954834 16364 net.cpp:418] res4c_branch2a -> res4c_branch2a
I0428 23:58:32.956799 16364 net.cpp:150] Setting up res4c_branch2a
I0428 23:58:32.956799 16364 net.cpp:157] Top shape: 1 256 14 14 (50176)
I0428 23:58:32.956799 16364 net.cpp:165] Memory required for data: 191873036
I0428 23:58:32.956799 16364 layer_factory.hpp:77] Creating layer bn4c_branch2a
I0428 23:58:32.956799 16364 net.cpp:100] Creating Layer bn4c_branch2a
I0428 23:58:32.956799 16364 net.cpp:444] bn4c_branch2a <- res4c_branch2a
I0428 23:58:32.956799 16364 net.cpp:405] bn4c_branch2a -> res4c_branch2a (in-place)
I0428 23:58:32.956799 16364 net.cpp:150] Setting up bn4c_branch2a
I0428 23:58:32.956799 16364 net.cpp:157] Top shape: 1 256 14 14 (50176)
I0428 23:58:32.956799 16364 net.cpp:165] Memory required for data: 192073740
I0428 23:58:32.956799 16364 layer_factory.hpp:77] Creating layer scale4c_branch2a
I0428 23:58:32.956799 16364 net.cpp:100] Creating Layer scale4c_branch2a
I0428 23:58:32.956799 16364 net.cpp:444] scale4c_branch2a <- res4c_branch2a
I0428 23:58:32.956799 16364 net.cpp:405] scale4c_branch2a -> res4c_branch2a (in-place)
I0428 23:58:32.956799 16364 layer_factory.hpp:77] Creating layer scale4c_branch2a
I0428 23:58:32.956799 16364 net.cpp:150] Setting up scale4c_branch2a
I0428 23:58:32.956799 16364 net.cpp:157] Top shape: 1 256 14 14 (50176)
I0428 23:58:32.956799 16364 net.cpp:165] Memory required for data: 192274444
I0428 23:58:32.956799 16364 layer_factory.hpp:77] Creating layer res4c_branch2a_relu
I0428 23:58:32.957798 16364 net.cpp:100] Creating Layer res4c_branch2a_relu
I0428 23:58:32.957798 16364 net.cpp:444] res4c_branch2a_relu <- res4c_branch2a
I0428 23:58:32.957798 16364 net.cpp:405] res4c_branch2a_relu -> res4c_branch2a (in-place)
I0428 23:58:32.957798 16364 net.cpp:150] Setting up res4c_branch2a_relu
I0428 23:58:32.957798 16364 net.cpp:157] Top shape: 1 256 14 14 (50176)
I0428 23:58:32.957798 16364 net.cpp:165] Memory required for data: 192475148
I0428 23:58:32.957798 16364 layer_factory.hpp:77] Creating layer res4c_branch2b
I0428 23:58:32.957798 16364 net.cpp:100] Creating Layer res4c_branch2b
I0428 23:58:32.957798 16364 net.cpp:444] res4c_branch2b <- res4c_branch2a
I0428 23:58:32.957798 16364 net.cpp:418] res4c_branch2b -> res4c_branch2b
I0428 23:58:32.960798 16364 net.cpp:150] Setting up res4c_branch2b
I0428 23:58:32.960798 16364 net.cpp:157] Top shape: 1 256 14 14 (50176)
I0428 23:58:32.960798 16364 net.cpp:165] Memory required for data: 192675852
I0428 23:58:32.960798 16364 layer_factory.hpp:77] Creating layer bn4c_branch2b
I0428 23:58:32.960798 16364 net.cpp:100] Creating Layer bn4c_branch2b
I0428 23:58:32.960798 16364 net.cpp:444] bn4c_branch2b <- res4c_branch2b
I0428 23:58:32.960798 16364 net.cpp:405] bn4c_branch2b -> res4c_branch2b (in-place)
I0428 23:58:32.960798 16364 net.cpp:150] Setting up bn4c_branch2b
I0428 23:58:32.960798 16364 net.cpp:157] Top shape: 1 256 14 14 (50176)
I0428 23:58:32.960798 16364 net.cpp:165] Memory required for data: 192876556
I0428 23:58:32.960798 16364 layer_factory.hpp:77] Creating layer scale4c_branch2b
I0428 23:58:32.960798 16364 net.cpp:100] Creating Layer scale4c_branch2b
I0428 23:58:32.960798 16364 net.cpp:444] scale4c_branch2b <- res4c_branch2b
I0428 23:58:32.960798 16364 net.cpp:405] scale4c_branch2b -> res4c_branch2b (in-place)
I0428 23:58:32.960798 16364 layer_factory.hpp:77] Creating layer scale4c_branch2b
I0428 23:58:32.960798 16364 net.cpp:150] Setting up scale4c_branch2b
I0428 23:58:32.960798 16364 net.cpp:157] Top shape: 1 256 14 14 (50176)
I0428 23:58:32.960798 16364 net.cpp:165] Memory required for data: 193077260
I0428 23:58:32.960798 16364 layer_factory.hpp:77] Creating layer res4c_branch2b_relu
I0428 23:58:32.960798 16364 net.cpp:100] Creating Layer res4c_branch2b_relu
I0428 23:58:32.960798 16364 net.cpp:444] res4c_branch2b_relu <- res4c_branch2b
I0428 23:58:32.960798 16364 net.cpp:405] res4c_branch2b_relu -> res4c_branch2b (in-place)
I0428 23:58:32.960798 16364 net.cpp:150] Setting up res4c_branch2b_relu
I0428 23:58:32.960798 16364 net.cpp:157] Top shape: 1 256 14 14 (50176)
I0428 23:58:32.960798 16364 net.cpp:165] Memory required for data: 193277964
I0428 23:58:32.960798 16364 layer_factory.hpp:77] Creating layer res4c_branch2c
I0428 23:58:32.960798 16364 net.cpp:100] Creating Layer res4c_branch2c
I0428 23:58:32.960798 16364 net.cpp:444] res4c_branch2c <- res4c_branch2b
I0428 23:58:32.960798 16364 net.cpp:418] res4c_branch2c -> res4c_branch2c
I0428 23:58:32.962785 16364 net.cpp:150] Setting up res4c_branch2c
I0428 23:58:32.962785 16364 net.cpp:157] Top shape: 1 1024 14 14 (200704)
I0428 23:58:32.962785 16364 net.cpp:165] Memory required for data: 194080780
I0428 23:58:32.962785 16364 layer_factory.hpp:77] Creating layer bn4c_branch2c
I0428 23:58:32.962785 16364 net.cpp:100] Creating Layer bn4c_branch2c
I0428 23:58:32.962785 16364 net.cpp:444] bn4c_branch2c <- res4c_branch2c
I0428 23:58:32.962785 16364 net.cpp:405] bn4c_branch2c -> res4c_branch2c (in-place)
I0428 23:58:32.962785 16364 net.cpp:150] Setting up bn4c_branch2c
I0428 23:58:32.962785 16364 net.cpp:157] Top shape: 1 1024 14 14 (200704)
I0428 23:58:32.962785 16364 net.cpp:165] Memory required for data: 194883596
I0428 23:58:32.962785 16364 layer_factory.hpp:77] Creating layer scale4c_branch2c
I0428 23:58:32.962785 16364 net.cpp:100] Creating Layer scale4c_branch2c
I0428 23:58:32.962785 16364 net.cpp:444] scale4c_branch2c <- res4c_branch2c
I0428 23:58:32.962785 16364 net.cpp:405] scale4c_branch2c -> res4c_branch2c (in-place)
I0428 23:58:32.962785 16364 layer_factory.hpp:77] Creating layer scale4c_branch2c
I0428 23:58:32.962785 16364 net.cpp:150] Setting up scale4c_branch2c
I0428 23:58:32.962785 16364 net.cpp:157] Top shape: 1 1024 14 14 (200704)
I0428 23:58:32.962785 16364 net.cpp:165] Memory required for data: 195686412
I0428 23:58:32.962785 16364 layer_factory.hpp:77] Creating layer res4c
I0428 23:58:32.962785 16364 net.cpp:100] Creating Layer res4c
I0428 23:58:32.962785 16364 net.cpp:444] res4c <- res4b_res4b_relu_0_split_1
I0428 23:58:32.962785 16364 net.cpp:444] res4c <- res4c_branch2c
I0428 23:58:32.962785 16364 net.cpp:418] res4c -> res4c
I0428 23:58:32.962785 16364 net.cpp:150] Setting up res4c
I0428 23:58:32.962785 16364 net.cpp:157] Top shape: 1 1024 14 14 (200704)
I0428 23:58:32.962785 16364 net.cpp:165] Memory required for data: 196489228
I0428 23:58:32.962785 16364 layer_factory.hpp:77] Creating layer res4c_relu
I0428 23:58:32.962785 16364 net.cpp:100] Creating Layer res4c_relu
I0428 23:58:32.962785 16364 net.cpp:444] res4c_relu <- res4c
I0428 23:58:32.962785 16364 net.cpp:405] res4c_relu -> res4c (in-place)
I0428 23:58:32.963781 16364 net.cpp:150] Setting up res4c_relu
I0428 23:58:32.963781 16364 net.cpp:157] Top shape: 1 1024 14 14 (200704)
I0428 23:58:32.963781 16364 net.cpp:165] Memory required for data: 197292044
I0428 23:58:32.963781 16364 layer_factory.hpp:77] Creating layer res4c_res4c_relu_0_split
I0428 23:58:32.963781 16364 net.cpp:100] Creating Layer res4c_res4c_relu_0_split
I0428 23:58:32.963781 16364 net.cpp:444] res4c_res4c_relu_0_split <- res4c
I0428 23:58:32.963781 16364 net.cpp:418] res4c_res4c_relu_0_split -> res4c_res4c_relu_0_split_0
I0428 23:58:32.963781 16364 net.cpp:418] res4c_res4c_relu_0_split -> res4c_res4c_relu_0_split_1
I0428 23:58:32.963781 16364 net.cpp:150] Setting up res4c_res4c_relu_0_split
I0428 23:58:32.963781 16364 net.cpp:157] Top shape: 1 1024 14 14 (200704)
I0428 23:58:32.963781 16364 net.cpp:157] Top shape: 1 1024 14 14 (200704)
I0428 23:58:32.963781 16364 net.cpp:165] Memory required for data: 198897676
I0428 23:58:32.963781 16364 layer_factory.hpp:77] Creating layer res4d_branch2a
I0428 23:58:32.963781 16364 net.cpp:100] Creating Layer res4d_branch2a
I0428 23:58:32.963781 16364 net.cpp:444] res4d_branch2a <- res4c_res4c_relu_0_split_0
I0428 23:58:32.963781 16364 net.cpp:418] res4d_branch2a -> res4d_branch2a
I0428 23:58:32.964778 16364 net.cpp:150] Setting up res4d_branch2a
I0428 23:58:32.965776 16364 net.cpp:157] Top shape: 1 256 14 14 (50176)
I0428 23:58:32.965776 16364 net.cpp:165] Memory required for data: 199098380
I0428 23:58:32.965776 16364 layer_factory.hpp:77] Creating layer bn4d_branch2a
I0428 23:58:32.965776 16364 net.cpp:100] Creating Layer bn4d_branch2a
I0428 23:58:32.965776 16364 net.cpp:444] bn4d_branch2a <- res4d_branch2a
I0428 23:58:32.965776 16364 net.cpp:405] bn4d_branch2a -> res4d_branch2a (in-place)
I0428 23:58:32.965776 16364 net.cpp:150] Setting up bn4d_branch2a
I0428 23:58:32.965776 16364 net.cpp:157] Top shape: 1 256 14 14 (50176)
I0428 23:58:32.965776 16364 net.cpp:165] Memory required for data: 199299084
I0428 23:58:32.965776 16364 layer_factory.hpp:77] Creating layer scale4d_branch2a
I0428 23:58:32.965776 16364 net.cpp:100] Creating Layer scale4d_branch2a
I0428 23:58:32.965776 16364 net.cpp:444] scale4d_branch2a <- res4d_branch2a
I0428 23:58:32.965776 16364 net.cpp:405] scale4d_branch2a -> res4d_branch2a (in-place)
I0428 23:58:32.965776 16364 layer_factory.hpp:77] Creating layer scale4d_branch2a
I0428 23:58:32.965776 16364 net.cpp:150] Setting up scale4d_branch2a
I0428 23:58:32.965776 16364 net.cpp:157] Top shape: 1 256 14 14 (50176)
I0428 23:58:32.965776 16364 net.cpp:165] Memory required for data: 199499788
I0428 23:58:32.965776 16364 layer_factory.hpp:77] Creating layer res4d_branch2a_relu
I0428 23:58:32.965776 16364 net.cpp:100] Creating Layer res4d_branch2a_relu
I0428 23:58:32.965776 16364 net.cpp:444] res4d_branch2a_relu <- res4d_branch2a
I0428 23:58:32.965776 16364 net.cpp:405] res4d_branch2a_relu -> res4d_branch2a (in-place)
I0428 23:58:32.965776 16364 net.cpp:150] Setting up res4d_branch2a_relu
I0428 23:58:32.965776 16364 net.cpp:157] Top shape: 1 256 14 14 (50176)
I0428 23:58:32.965776 16364 net.cpp:165] Memory required for data: 199700492
I0428 23:58:32.965776 16364 layer_factory.hpp:77] Creating layer res4d_branch2b
I0428 23:58:32.965776 16364 net.cpp:100] Creating Layer res4d_branch2b
I0428 23:58:32.965776 16364 net.cpp:444] res4d_branch2b <- res4d_branch2a
I0428 23:58:32.965776 16364 net.cpp:418] res4d_branch2b -> res4d_branch2b
I0428 23:58:32.968768 16364 net.cpp:150] Setting up res4d_branch2b
I0428 23:58:32.968768 16364 net.cpp:157] Top shape: 1 256 14 14 (50176)
I0428 23:58:32.968768 16364 net.cpp:165] Memory required for data: 199901196
I0428 23:58:32.968768 16364 layer_factory.hpp:77] Creating layer bn4d_branch2b
I0428 23:58:32.968768 16364 net.cpp:100] Creating Layer bn4d_branch2b
I0428 23:58:32.968768 16364 net.cpp:444] bn4d_branch2b <- res4d_branch2b
I0428 23:58:32.968768 16364 net.cpp:405] bn4d_branch2b -> res4d_branch2b (in-place)
I0428 23:58:32.968768 16364 net.cpp:150] Setting up bn4d_branch2b
I0428 23:58:32.968768 16364 net.cpp:157] Top shape: 1 256 14 14 (50176)
I0428 23:58:32.968768 16364 net.cpp:165] Memory required for data: 200101900
I0428 23:58:32.968768 16364 layer_factory.hpp:77] Creating layer scale4d_branch2b
I0428 23:58:32.968768 16364 net.cpp:100] Creating Layer scale4d_branch2b
I0428 23:58:32.968768 16364 net.cpp:444] scale4d_branch2b <- res4d_branch2b
I0428 23:58:32.968768 16364 net.cpp:405] scale4d_branch2b -> res4d_branch2b (in-place)
I0428 23:58:32.968768 16364 layer_factory.hpp:77] Creating layer scale4d_branch2b
I0428 23:58:32.968768 16364 net.cpp:150] Setting up scale4d_branch2b
I0428 23:58:32.968768 16364 net.cpp:157] Top shape: 1 256 14 14 (50176)
I0428 23:58:32.968768 16364 net.cpp:165] Memory required for data: 200302604
I0428 23:58:32.968768 16364 layer_factory.hpp:77] Creating layer res4d_branch2b_relu
I0428 23:58:32.968768 16364 net.cpp:100] Creating Layer res4d_branch2b_relu
I0428 23:58:32.968768 16364 net.cpp:444] res4d_branch2b_relu <- res4d_branch2b
I0428 23:58:32.968768 16364 net.cpp:405] res4d_branch2b_relu -> res4d_branch2b (in-place)
I0428 23:58:32.969800 16364 net.cpp:150] Setting up res4d_branch2b_relu
I0428 23:58:32.969800 16364 net.cpp:157] Top shape: 1 256 14 14 (50176)
I0428 23:58:32.969800 16364 net.cpp:165] Memory required for data: 200503308
I0428 23:58:32.969800 16364 layer_factory.hpp:77] Creating layer res4d_branch2c
I0428 23:58:32.969800 16364 net.cpp:100] Creating Layer res4d_branch2c
I0428 23:58:32.969800 16364 net.cpp:444] res4d_branch2c <- res4d_branch2b
I0428 23:58:32.969800 16364 net.cpp:418] res4d_branch2c -> res4d_branch2c
I0428 23:58:32.971792 16364 net.cpp:150] Setting up res4d_branch2c
I0428 23:58:32.971792 16364 net.cpp:157] Top shape: 1 1024 14 14 (200704)
I0428 23:58:32.971792 16364 net.cpp:165] Memory required for data: 201306124
I0428 23:58:32.971792 16364 layer_factory.hpp:77] Creating layer bn4d_branch2c
I0428 23:58:32.971792 16364 net.cpp:100] Creating Layer bn4d_branch2c
I0428 23:58:32.971792 16364 net.cpp:444] bn4d_branch2c <- res4d_branch2c
I0428 23:58:32.971792 16364 net.cpp:405] bn4d_branch2c -> res4d_branch2c (in-place)
I0428 23:58:32.971792 16364 net.cpp:150] Setting up bn4d_branch2c
I0428 23:58:32.971792 16364 net.cpp:157] Top shape: 1 1024 14 14 (200704)
I0428 23:58:32.971792 16364 net.cpp:165] Memory required for data: 202108940
I0428 23:58:32.971792 16364 layer_factory.hpp:77] Creating layer scale4d_branch2c
I0428 23:58:32.971792 16364 net.cpp:100] Creating Layer scale4d_branch2c
I0428 23:58:32.971792 16364 net.cpp:444] scale4d_branch2c <- res4d_branch2c
I0428 23:58:32.971792 16364 net.cpp:405] scale4d_branch2c -> res4d_branch2c (in-place)
I0428 23:58:32.971792 16364 layer_factory.hpp:77] Creating layer scale4d_branch2c
I0428 23:58:32.971792 16364 net.cpp:150] Setting up scale4d_branch2c
I0428 23:58:32.971792 16364 net.cpp:157] Top shape: 1 1024 14 14 (200704)
I0428 23:58:32.971792 16364 net.cpp:165] Memory required for data: 202911756
I0428 23:58:32.971792 16364 layer_factory.hpp:77] Creating layer res4d
I0428 23:58:32.971792 16364 net.cpp:100] Creating Layer res4d
I0428 23:58:32.971792 16364 net.cpp:444] res4d <- res4c_res4c_relu_0_split_1
I0428 23:58:32.971792 16364 net.cpp:444] res4d <- res4d_branch2c
I0428 23:58:32.971792 16364 net.cpp:418] res4d -> res4d
I0428 23:58:32.971792 16364 net.cpp:150] Setting up res4d
I0428 23:58:32.971792 16364 net.cpp:157] Top shape: 1 1024 14 14 (200704)
I0428 23:58:32.971792 16364 net.cpp:165] Memory required for data: 203714572
I0428 23:58:32.971792 16364 layer_factory.hpp:77] Creating layer res4d_relu
I0428 23:58:32.971792 16364 net.cpp:100] Creating Layer res4d_relu
I0428 23:58:32.971792 16364 net.cpp:444] res4d_relu <- res4d
I0428 23:58:32.971792 16364 net.cpp:405] res4d_relu -> res4d (in-place)
I0428 23:58:32.971792 16364 net.cpp:150] Setting up res4d_relu
I0428 23:58:32.971792 16364 net.cpp:157] Top shape: 1 1024 14 14 (200704)
I0428 23:58:32.971792 16364 net.cpp:165] Memory required for data: 204517388
I0428 23:58:32.971792 16364 layer_factory.hpp:77] Creating layer res4d_res4d_relu_0_split
I0428 23:58:32.971792 16364 net.cpp:100] Creating Layer res4d_res4d_relu_0_split
I0428 23:58:32.971792 16364 net.cpp:444] res4d_res4d_relu_0_split <- res4d
I0428 23:58:32.971792 16364 net.cpp:418] res4d_res4d_relu_0_split -> res4d_res4d_relu_0_split_0
I0428 23:58:32.971792 16364 net.cpp:418] res4d_res4d_relu_0_split -> res4d_res4d_relu_0_split_1
I0428 23:58:32.971792 16364 net.cpp:150] Setting up res4d_res4d_relu_0_split
I0428 23:58:32.971792 16364 net.cpp:157] Top shape: 1 1024 14 14 (200704)
I0428 23:58:32.971792 16364 net.cpp:157] Top shape: 1 1024 14 14 (200704)
I0428 23:58:32.971792 16364 net.cpp:165] Memory required for data: 206123020
I0428 23:58:32.971792 16364 layer_factory.hpp:77] Creating layer res4e_branch2a
I0428 23:58:32.971792 16364 net.cpp:100] Creating Layer res4e_branch2a
I0428 23:58:32.971792 16364 net.cpp:444] res4e_branch2a <- res4d_res4d_relu_0_split_0
I0428 23:58:32.971792 16364 net.cpp:418] res4e_branch2a -> res4e_branch2a
I0428 23:58:32.973754 16364 net.cpp:150] Setting up res4e_branch2a
I0428 23:58:32.973754 16364 net.cpp:157] Top shape: 1 256 14 14 (50176)
I0428 23:58:32.973754 16364 net.cpp:165] Memory required for data: 206323724
I0428 23:58:32.973754 16364 layer_factory.hpp:77] Creating layer bn4e_branch2a
I0428 23:58:32.973754 16364 net.cpp:100] Creating Layer bn4e_branch2a
I0428 23:58:32.973754 16364 net.cpp:444] bn4e_branch2a <- res4e_branch2a
I0428 23:58:32.973754 16364 net.cpp:405] bn4e_branch2a -> res4e_branch2a (in-place)
I0428 23:58:32.973754 16364 net.cpp:150] Setting up bn4e_branch2a
I0428 23:58:32.973754 16364 net.cpp:157] Top shape: 1 256 14 14 (50176)
I0428 23:58:32.973754 16364 net.cpp:165] Memory required for data: 206524428
I0428 23:58:32.973754 16364 layer_factory.hpp:77] Creating layer scale4e_branch2a
I0428 23:58:32.973754 16364 net.cpp:100] Creating Layer scale4e_branch2a
I0428 23:58:32.973754 16364 net.cpp:444] scale4e_branch2a <- res4e_branch2a
I0428 23:58:32.973754 16364 net.cpp:405] scale4e_branch2a -> res4e_branch2a (in-place)
I0428 23:58:32.973754 16364 layer_factory.hpp:77] Creating layer scale4e_branch2a
I0428 23:58:32.973754 16364 net.cpp:150] Setting up scale4e_branch2a
I0428 23:58:32.973754 16364 net.cpp:157] Top shape: 1 256 14 14 (50176)
I0428 23:58:32.973754 16364 net.cpp:165] Memory required for data: 206725132
I0428 23:58:32.973754 16364 layer_factory.hpp:77] Creating layer res4e_branch2a_relu
I0428 23:58:32.973754 16364 net.cpp:100] Creating Layer res4e_branch2a_relu
I0428 23:58:32.973754 16364 net.cpp:444] res4e_branch2a_relu <- res4e_branch2a
I0428 23:58:32.973754 16364 net.cpp:405] res4e_branch2a_relu -> res4e_branch2a (in-place)
I0428 23:58:32.974784 16364 net.cpp:150] Setting up res4e_branch2a_relu
I0428 23:58:32.974784 16364 net.cpp:157] Top shape: 1 256 14 14 (50176)
I0428 23:58:32.974784 16364 net.cpp:165] Memory required for data: 206925836
I0428 23:58:32.974784 16364 layer_factory.hpp:77] Creating layer res4e_branch2b
I0428 23:58:32.974784 16364 net.cpp:100] Creating Layer res4e_branch2b
I0428 23:58:32.974784 16364 net.cpp:444] res4e_branch2b <- res4e_branch2a
I0428 23:58:32.974784 16364 net.cpp:418] res4e_branch2b -> res4e_branch2b
I0428 23:58:32.976779 16364 net.cpp:150] Setting up res4e_branch2b
I0428 23:58:32.976779 16364 net.cpp:157] Top shape: 1 256 14 14 (50176)
I0428 23:58:32.976779 16364 net.cpp:165] Memory required for data: 207126540
I0428 23:58:32.976779 16364 layer_factory.hpp:77] Creating layer bn4e_branch2b
I0428 23:58:32.976779 16364 net.cpp:100] Creating Layer bn4e_branch2b
I0428 23:58:32.976779 16364 net.cpp:444] bn4e_branch2b <- res4e_branch2b
I0428 23:58:32.976779 16364 net.cpp:405] bn4e_branch2b -> res4e_branch2b (in-place)
I0428 23:58:32.976779 16364 net.cpp:150] Setting up bn4e_branch2b
I0428 23:58:32.976779 16364 net.cpp:157] Top shape: 1 256 14 14 (50176)
I0428 23:58:32.976779 16364 net.cpp:165] Memory required for data: 207327244
I0428 23:58:32.976779 16364 layer_factory.hpp:77] Creating layer scale4e_branch2b
I0428 23:58:32.976779 16364 net.cpp:100] Creating Layer scale4e_branch2b
I0428 23:58:32.976779 16364 net.cpp:444] scale4e_branch2b <- res4e_branch2b
I0428 23:58:32.976779 16364 net.cpp:405] scale4e_branch2b -> res4e_branch2b (in-place)
I0428 23:58:32.976779 16364 layer_factory.hpp:77] Creating layer scale4e_branch2b
I0428 23:58:32.976779 16364 net.cpp:150] Setting up scale4e_branch2b
I0428 23:58:32.976779 16364 net.cpp:157] Top shape: 1 256 14 14 (50176)
I0428 23:58:32.976779 16364 net.cpp:165] Memory required for data: 207527948
I0428 23:58:32.976779 16364 layer_factory.hpp:77] Creating layer res4e_branch2b_relu
I0428 23:58:32.976779 16364 net.cpp:100] Creating Layer res4e_branch2b_relu
I0428 23:58:32.976779 16364 net.cpp:444] res4e_branch2b_relu <- res4e_branch2b
I0428 23:58:32.976779 16364 net.cpp:405] res4e_branch2b_relu -> res4e_branch2b (in-place)
I0428 23:58:32.976779 16364 net.cpp:150] Setting up res4e_branch2b_relu
I0428 23:58:32.976779 16364 net.cpp:157] Top shape: 1 256 14 14 (50176)
I0428 23:58:32.976779 16364 net.cpp:165] Memory required for data: 207728652
I0428 23:58:32.976779 16364 layer_factory.hpp:77] Creating layer res4e_branch2c
I0428 23:58:32.976779 16364 net.cpp:100] Creating Layer res4e_branch2c
I0428 23:58:32.976779 16364 net.cpp:444] res4e_branch2c <- res4e_branch2b
I0428 23:58:32.976779 16364 net.cpp:418] res4e_branch2c -> res4e_branch2c
I0428 23:58:32.978741 16364 net.cpp:150] Setting up res4e_branch2c
I0428 23:58:32.979773 16364 net.cpp:157] Top shape: 1 1024 14 14 (200704)
I0428 23:58:32.979773 16364 net.cpp:165] Memory required for data: 208531468
I0428 23:58:32.979773 16364 layer_factory.hpp:77] Creating layer bn4e_branch2c
I0428 23:58:32.979773 16364 net.cpp:100] Creating Layer bn4e_branch2c
I0428 23:58:32.979773 16364 net.cpp:444] bn4e_branch2c <- res4e_branch2c
I0428 23:58:32.979773 16364 net.cpp:405] bn4e_branch2c -> res4e_branch2c (in-place)
I0428 23:58:32.979773 16364 net.cpp:150] Setting up bn4e_branch2c
I0428 23:58:32.979773 16364 net.cpp:157] Top shape: 1 1024 14 14 (200704)
I0428 23:58:32.979773 16364 net.cpp:165] Memory required for data: 209334284
I0428 23:58:32.979773 16364 layer_factory.hpp:77] Creating layer scale4e_branch2c
I0428 23:58:32.979773 16364 net.cpp:100] Creating Layer scale4e_branch2c
I0428 23:58:32.979773 16364 net.cpp:444] scale4e_branch2c <- res4e_branch2c
I0428 23:58:32.979773 16364 net.cpp:405] scale4e_branch2c -> res4e_branch2c (in-place)
I0428 23:58:32.979773 16364 layer_factory.hpp:77] Creating layer scale4e_branch2c
I0428 23:58:32.979773 16364 net.cpp:150] Setting up scale4e_branch2c
I0428 23:58:32.979773 16364 net.cpp:157] Top shape: 1 1024 14 14 (200704)
I0428 23:58:32.979773 16364 net.cpp:165] Memory required for data: 210137100
I0428 23:58:32.979773 16364 layer_factory.hpp:77] Creating layer res4e
I0428 23:58:32.979773 16364 net.cpp:100] Creating Layer res4e
I0428 23:58:32.979773 16364 net.cpp:444] res4e <- res4d_res4d_relu_0_split_1
I0428 23:58:32.979773 16364 net.cpp:444] res4e <- res4e_branch2c
I0428 23:58:32.979773 16364 net.cpp:418] res4e -> res4e
I0428 23:58:32.979773 16364 net.cpp:150] Setting up res4e
I0428 23:58:32.979773 16364 net.cpp:157] Top shape: 1 1024 14 14 (200704)
I0428 23:58:32.979773 16364 net.cpp:165] Memory required for data: 210939916
I0428 23:58:32.979773 16364 layer_factory.hpp:77] Creating layer res4e_relu
I0428 23:58:32.979773 16364 net.cpp:100] Creating Layer res4e_relu
I0428 23:58:32.979773 16364 net.cpp:444] res4e_relu <- res4e
I0428 23:58:32.979773 16364 net.cpp:405] res4e_relu -> res4e (in-place)
I0428 23:58:32.979773 16364 net.cpp:150] Setting up res4e_relu
I0428 23:58:32.979773 16364 net.cpp:157] Top shape: 1 1024 14 14 (200704)
I0428 23:58:32.979773 16364 net.cpp:165] Memory required for data: 211742732
I0428 23:58:32.979773 16364 layer_factory.hpp:77] Creating layer res4e_res4e_relu_0_split
I0428 23:58:32.979773 16364 net.cpp:100] Creating Layer res4e_res4e_relu_0_split
I0428 23:58:32.979773 16364 net.cpp:444] res4e_res4e_relu_0_split <- res4e
I0428 23:58:32.979773 16364 net.cpp:418] res4e_res4e_relu_0_split -> res4e_res4e_relu_0_split_0
I0428 23:58:32.979773 16364 net.cpp:418] res4e_res4e_relu_0_split -> res4e_res4e_relu_0_split_1
I0428 23:58:32.980765 16364 net.cpp:150] Setting up res4e_res4e_relu_0_split
I0428 23:58:32.980765 16364 net.cpp:157] Top shape: 1 1024 14 14 (200704)
I0428 23:58:32.980765 16364 net.cpp:157] Top shape: 1 1024 14 14 (200704)
I0428 23:58:32.980765 16364 net.cpp:165] Memory required for data: 213348364
I0428 23:58:32.980765 16364 layer_factory.hpp:77] Creating layer res4f_branch2a
I0428 23:58:32.980765 16364 net.cpp:100] Creating Layer res4f_branch2a
I0428 23:58:32.980765 16364 net.cpp:444] res4f_branch2a <- res4e_res4e_relu_0_split_0
I0428 23:58:32.980765 16364 net.cpp:418] res4f_branch2a -> res4f_branch2a
I0428 23:58:32.981734 16364 net.cpp:150] Setting up res4f_branch2a
I0428 23:58:32.981734 16364 net.cpp:157] Top shape: 1 256 14 14 (50176)
I0428 23:58:32.981734 16364 net.cpp:165] Memory required for data: 213549068
I0428 23:58:32.981734 16364 layer_factory.hpp:77] Creating layer bn4f_branch2a
I0428 23:58:32.981734 16364 net.cpp:100] Creating Layer bn4f_branch2a
I0428 23:58:32.981734 16364 net.cpp:444] bn4f_branch2a <- res4f_branch2a
I0428 23:58:32.981734 16364 net.cpp:405] bn4f_branch2a -> res4f_branch2a (in-place)
I0428 23:58:32.981734 16364 net.cpp:150] Setting up bn4f_branch2a
I0428 23:58:32.981734 16364 net.cpp:157] Top shape: 1 256 14 14 (50176)
I0428 23:58:32.981734 16364 net.cpp:165] Memory required for data: 213749772
I0428 23:58:32.981734 16364 layer_factory.hpp:77] Creating layer scale4f_branch2a
I0428 23:58:32.981734 16364 net.cpp:100] Creating Layer scale4f_branch2a
I0428 23:58:32.981734 16364 net.cpp:444] scale4f_branch2a <- res4f_branch2a
I0428 23:58:32.981734 16364 net.cpp:405] scale4f_branch2a -> res4f_branch2a (in-place)
I0428 23:58:32.981734 16364 layer_factory.hpp:77] Creating layer scale4f_branch2a
I0428 23:58:32.981734 16364 net.cpp:150] Setting up scale4f_branch2a
I0428 23:58:32.981734 16364 net.cpp:157] Top shape: 1 256 14 14 (50176)
I0428 23:58:32.981734 16364 net.cpp:165] Memory required for data: 213950476
I0428 23:58:32.981734 16364 layer_factory.hpp:77] Creating layer res4f_branch2a_relu
I0428 23:58:32.981734 16364 net.cpp:100] Creating Layer res4f_branch2a_relu
I0428 23:58:32.981734 16364 net.cpp:444] res4f_branch2a_relu <- res4f_branch2a
I0428 23:58:32.981734 16364 net.cpp:405] res4f_branch2a_relu -> res4f_branch2a (in-place)
I0428 23:58:32.982762 16364 net.cpp:150] Setting up res4f_branch2a_relu
I0428 23:58:32.982762 16364 net.cpp:157] Top shape: 1 256 14 14 (50176)
I0428 23:58:32.982762 16364 net.cpp:165] Memory required for data: 214151180
I0428 23:58:32.982762 16364 layer_factory.hpp:77] Creating layer res4f_branch2b
I0428 23:58:32.982762 16364 net.cpp:100] Creating Layer res4f_branch2b
I0428 23:58:32.982762 16364 net.cpp:444] res4f_branch2b <- res4f_branch2a
I0428 23:58:32.982762 16364 net.cpp:418] res4f_branch2b -> res4f_branch2b
I0428 23:58:32.985725 16364 net.cpp:150] Setting up res4f_branch2b
I0428 23:58:32.985725 16364 net.cpp:157] Top shape: 1 256 14 14 (50176)
I0428 23:58:32.985725 16364 net.cpp:165] Memory required for data: 214351884
I0428 23:58:32.985725 16364 layer_factory.hpp:77] Creating layer bn4f_branch2b
I0428 23:58:32.985725 16364 net.cpp:100] Creating Layer bn4f_branch2b
I0428 23:58:32.985725 16364 net.cpp:444] bn4f_branch2b <- res4f_branch2b
I0428 23:58:32.985725 16364 net.cpp:405] bn4f_branch2b -> res4f_branch2b (in-place)
I0428 23:58:32.985725 16364 net.cpp:150] Setting up bn4f_branch2b
I0428 23:58:32.985725 16364 net.cpp:157] Top shape: 1 256 14 14 (50176)
I0428 23:58:32.985725 16364 net.cpp:165] Memory required for data: 214552588
I0428 23:58:32.985725 16364 layer_factory.hpp:77] Creating layer scale4f_branch2b
I0428 23:58:32.985725 16364 net.cpp:100] Creating Layer scale4f_branch2b
I0428 23:58:32.985725 16364 net.cpp:444] scale4f_branch2b <- res4f_branch2b
I0428 23:58:32.985725 16364 net.cpp:405] scale4f_branch2b -> res4f_branch2b (in-place)
I0428 23:58:32.985725 16364 layer_factory.hpp:77] Creating layer scale4f_branch2b
I0428 23:58:32.985725 16364 net.cpp:150] Setting up scale4f_branch2b
I0428 23:58:32.985725 16364 net.cpp:157] Top shape: 1 256 14 14 (50176)
I0428 23:58:32.985725 16364 net.cpp:165] Memory required for data: 214753292
I0428 23:58:32.985725 16364 layer_factory.hpp:77] Creating layer res4f_branch2b_relu
I0428 23:58:32.985725 16364 net.cpp:100] Creating Layer res4f_branch2b_relu
I0428 23:58:32.985725 16364 net.cpp:444] res4f_branch2b_relu <- res4f_branch2b
I0428 23:58:32.985725 16364 net.cpp:405] res4f_branch2b_relu -> res4f_branch2b (in-place)
I0428 23:58:32.985725 16364 net.cpp:150] Setting up res4f_branch2b_relu
I0428 23:58:32.985725 16364 net.cpp:157] Top shape: 1 256 14 14 (50176)
I0428 23:58:32.985725 16364 net.cpp:165] Memory required for data: 214953996
I0428 23:58:32.985725 16364 layer_factory.hpp:77] Creating layer res4f_branch2c
I0428 23:58:32.985725 16364 net.cpp:100] Creating Layer res4f_branch2c
I0428 23:58:32.985725 16364 net.cpp:444] res4f_branch2c <- res4f_branch2b
I0428 23:58:32.985725 16364 net.cpp:418] res4f_branch2c -> res4f_branch2c
I0428 23:58:32.987738 16364 net.cpp:150] Setting up res4f_branch2c
I0428 23:58:32.987738 16364 net.cpp:157] Top shape: 1 1024 14 14 (200704)
I0428 23:58:32.987738 16364 net.cpp:165] Memory required for data: 215756812
I0428 23:58:32.987738 16364 layer_factory.hpp:77] Creating layer bn4f_branch2c
I0428 23:58:32.987738 16364 net.cpp:100] Creating Layer bn4f_branch2c
I0428 23:58:32.987738 16364 net.cpp:444] bn4f_branch2c <- res4f_branch2c
I0428 23:58:32.987738 16364 net.cpp:405] bn4f_branch2c -> res4f_branch2c (in-place)
I0428 23:58:32.987738 16364 net.cpp:150] Setting up bn4f_branch2c
I0428 23:58:32.987738 16364 net.cpp:157] Top shape: 1 1024 14 14 (200704)
I0428 23:58:32.987738 16364 net.cpp:165] Memory required for data: 216559628
I0428 23:58:32.987738 16364 layer_factory.hpp:77] Creating layer scale4f_branch2c
I0428 23:58:32.987738 16364 net.cpp:100] Creating Layer scale4f_branch2c
I0428 23:58:32.987738 16364 net.cpp:444] scale4f_branch2c <- res4f_branch2c
I0428 23:58:32.987738 16364 net.cpp:405] scale4f_branch2c -> res4f_branch2c (in-place)
I0428 23:58:32.987738 16364 layer_factory.hpp:77] Creating layer scale4f_branch2c
I0428 23:58:32.987738 16364 net.cpp:150] Setting up scale4f_branch2c
I0428 23:58:32.987738 16364 net.cpp:157] Top shape: 1 1024 14 14 (200704)
I0428 23:58:32.987738 16364 net.cpp:165] Memory required for data: 217362444
I0428 23:58:32.987738 16364 layer_factory.hpp:77] Creating layer res4f
I0428 23:58:32.987738 16364 net.cpp:100] Creating Layer res4f
I0428 23:58:32.987738 16364 net.cpp:444] res4f <- res4e_res4e_relu_0_split_1
I0428 23:58:32.987738 16364 net.cpp:444] res4f <- res4f_branch2c
I0428 23:58:32.987738 16364 net.cpp:418] res4f -> res4f
I0428 23:58:32.987738 16364 net.cpp:150] Setting up res4f
I0428 23:58:32.987738 16364 net.cpp:157] Top shape: 1 1024 14 14 (200704)
I0428 23:58:32.987738 16364 net.cpp:165] Memory required for data: 218165260
I0428 23:58:32.987738 16364 layer_factory.hpp:77] Creating layer res4f_relu
I0428 23:58:32.987738 16364 net.cpp:100] Creating Layer res4f_relu
I0428 23:58:32.987738 16364 net.cpp:444] res4f_relu <- res4f
I0428 23:58:32.987738 16364 net.cpp:405] res4f_relu -> res4f (in-place)
I0428 23:58:32.988714 16364 net.cpp:150] Setting up res4f_relu
I0428 23:58:32.988714 16364 net.cpp:157] Top shape: 1 1024 14 14 (200704)
I0428 23:58:32.988714 16364 net.cpp:165] Memory required for data: 218968076
I0428 23:58:32.988714 16364 layer_factory.hpp:77] Creating layer res4f_res4f_relu_0_split
I0428 23:58:32.988714 16364 net.cpp:100] Creating Layer res4f_res4f_relu_0_split
I0428 23:58:32.988714 16364 net.cpp:444] res4f_res4f_relu_0_split <- res4f
I0428 23:58:32.988714 16364 net.cpp:418] res4f_res4f_relu_0_split -> res4f_res4f_relu_0_split_0
I0428 23:58:32.988714 16364 net.cpp:418] res4f_res4f_relu_0_split -> res4f_res4f_relu_0_split_1
I0428 23:58:32.988714 16364 net.cpp:418] res4f_res4f_relu_0_split -> res4f_res4f_relu_0_split_2
I0428 23:58:32.988714 16364 net.cpp:150] Setting up res4f_res4f_relu_0_split
I0428 23:58:32.988714 16364 net.cpp:157] Top shape: 1 1024 14 14 (200704)
I0428 23:58:32.988714 16364 net.cpp:157] Top shape: 1 1024 14 14 (200704)
I0428 23:58:32.988714 16364 net.cpp:157] Top shape: 1 1024 14 14 (200704)
I0428 23:58:32.988714 16364 net.cpp:165] Memory required for data: 221376524
I0428 23:58:32.988714 16364 layer_factory.hpp:77] Creating layer res5a_branch1
I0428 23:58:32.988714 16364 net.cpp:100] Creating Layer res5a_branch1
I0428 23:58:32.988714 16364 net.cpp:444] res5a_branch1 <- res4f_res4f_relu_0_split_0
I0428 23:58:32.988714 16364 net.cpp:418] res5a_branch1 -> res5a_branch1
I0428 23:58:32.994700 16364 net.cpp:150] Setting up res5a_branch1
I0428 23:58:32.994700 16364 net.cpp:157] Top shape: 1 2048 14 14 (401408)
I0428 23:58:32.994700 16364 net.cpp:165] Memory required for data: 222982156
I0428 23:58:32.994700 16364 layer_factory.hpp:77] Creating layer bn5a_branch1
I0428 23:58:32.994700 16364 net.cpp:100] Creating Layer bn5a_branch1
I0428 23:58:32.994700 16364 net.cpp:444] bn5a_branch1 <- res5a_branch1
I0428 23:58:32.994700 16364 net.cpp:405] bn5a_branch1 -> res5a_branch1 (in-place)
I0428 23:58:32.994700 16364 net.cpp:150] Setting up bn5a_branch1
I0428 23:58:32.994700 16364 net.cpp:157] Top shape: 1 2048 14 14 (401408)
I0428 23:58:32.994700 16364 net.cpp:165] Memory required for data: 224587788
I0428 23:58:32.994700 16364 layer_factory.hpp:77] Creating layer scale5a_branch1
I0428 23:58:32.994700 16364 net.cpp:100] Creating Layer scale5a_branch1
I0428 23:58:32.994700 16364 net.cpp:444] scale5a_branch1 <- res5a_branch1
I0428 23:58:32.994700 16364 net.cpp:405] scale5a_branch1 -> res5a_branch1 (in-place)
I0428 23:58:32.994700 16364 layer_factory.hpp:77] Creating layer scale5a_branch1
I0428 23:58:32.994700 16364 net.cpp:150] Setting up scale5a_branch1
I0428 23:58:32.994700 16364 net.cpp:157] Top shape: 1 2048 14 14 (401408)
I0428 23:58:32.994700 16364 net.cpp:165] Memory required for data: 226193420
I0428 23:58:32.994700 16364 layer_factory.hpp:77] Creating layer res5a_branch2a
I0428 23:58:32.994700 16364 net.cpp:100] Creating Layer res5a_branch2a
I0428 23:58:32.994700 16364 net.cpp:444] res5a_branch2a <- res4f_res4f_relu_0_split_1
I0428 23:58:32.994700 16364 net.cpp:418] res5a_branch2a -> res5a_branch2a
I0428 23:58:32.996693 16364 net.cpp:150] Setting up res5a_branch2a
I0428 23:58:32.996693 16364 net.cpp:157] Top shape: 1 512 14 14 (100352)
I0428 23:58:32.996693 16364 net.cpp:165] Memory required for data: 226594828
I0428 23:58:32.996693 16364 layer_factory.hpp:77] Creating layer bn5a_branch2a
I0428 23:58:32.996693 16364 net.cpp:100] Creating Layer bn5a_branch2a
I0428 23:58:32.996693 16364 net.cpp:444] bn5a_branch2a <- res5a_branch2a
I0428 23:58:32.996693 16364 net.cpp:405] bn5a_branch2a -> res5a_branch2a (in-place)
I0428 23:58:32.996693 16364 net.cpp:150] Setting up bn5a_branch2a
I0428 23:58:32.996693 16364 net.cpp:157] Top shape: 1 512 14 14 (100352)
I0428 23:58:32.996693 16364 net.cpp:165] Memory required for data: 226996236
I0428 23:58:32.996693 16364 layer_factory.hpp:77] Creating layer scale5a_branch2a
I0428 23:58:32.996693 16364 net.cpp:100] Creating Layer scale5a_branch2a
I0428 23:58:32.996693 16364 net.cpp:444] scale5a_branch2a <- res5a_branch2a
I0428 23:58:32.996693 16364 net.cpp:405] scale5a_branch2a -> res5a_branch2a (in-place)
I0428 23:58:32.996693 16364 layer_factory.hpp:77] Creating layer scale5a_branch2a
I0428 23:58:32.996693 16364 net.cpp:150] Setting up scale5a_branch2a
I0428 23:58:32.996693 16364 net.cpp:157] Top shape: 1 512 14 14 (100352)
I0428 23:58:32.996693 16364 net.cpp:165] Memory required for data: 227397644
I0428 23:58:32.996693 16364 layer_factory.hpp:77] Creating layer res5a_branch2a_relu
I0428 23:58:32.996693 16364 net.cpp:100] Creating Layer res5a_branch2a_relu
I0428 23:58:32.996693 16364 net.cpp:444] res5a_branch2a_relu <- res5a_branch2a
I0428 23:58:32.996693 16364 net.cpp:405] res5a_branch2a_relu -> res5a_branch2a (in-place)
I0428 23:58:32.997690 16364 net.cpp:150] Setting up res5a_branch2a_relu
I0428 23:58:32.997690 16364 net.cpp:157] Top shape: 1 512 14 14 (100352)
I0428 23:58:32.997690 16364 net.cpp:165] Memory required for data: 227799052
I0428 23:58:32.997690 16364 layer_factory.hpp:77] Creating layer res5a_branch2b
I0428 23:58:32.997690 16364 net.cpp:100] Creating Layer res5a_branch2b
I0428 23:58:32.997690 16364 net.cpp:444] res5a_branch2b <- res5a_branch2a
I0428 23:58:32.997690 16364 net.cpp:418] res5a_branch2b -> res5a_branch2b
I0428 23:58:33.002678 16364 net.cpp:150] Setting up res5a_branch2b
I0428 23:58:33.002678 16364 net.cpp:157] Top shape: 1 512 14 14 (100352)
I0428 23:58:33.002678 16364 net.cpp:165] Memory required for data: 228200460
I0428 23:58:33.002678 16364 layer_factory.hpp:77] Creating layer bn5a_branch2b
I0428 23:58:33.002678 16364 net.cpp:100] Creating Layer bn5a_branch2b
I0428 23:58:33.002678 16364 net.cpp:444] bn5a_branch2b <- res5a_branch2b
I0428 23:58:33.002678 16364 net.cpp:405] bn5a_branch2b -> res5a_branch2b (in-place)
I0428 23:58:33.002678 16364 net.cpp:150] Setting up bn5a_branch2b
I0428 23:58:33.002678 16364 net.cpp:157] Top shape: 1 512 14 14 (100352)
I0428 23:58:33.002678 16364 net.cpp:165] Memory required for data: 228601868
I0428 23:58:33.002678 16364 layer_factory.hpp:77] Creating layer scale5a_branch2b
I0428 23:58:33.002678 16364 net.cpp:100] Creating Layer scale5a_branch2b
I0428 23:58:33.002678 16364 net.cpp:444] scale5a_branch2b <- res5a_branch2b
I0428 23:58:33.002678 16364 net.cpp:405] scale5a_branch2b -> res5a_branch2b (in-place)
I0428 23:58:33.002678 16364 layer_factory.hpp:77] Creating layer scale5a_branch2b
I0428 23:58:33.002678 16364 net.cpp:150] Setting up scale5a_branch2b
I0428 23:58:33.002678 16364 net.cpp:157] Top shape: 1 512 14 14 (100352)
I0428 23:58:33.002678 16364 net.cpp:165] Memory required for data: 229003276
I0428 23:58:33.002678 16364 layer_factory.hpp:77] Creating layer res5a_branch2b_relu
I0428 23:58:33.002678 16364 net.cpp:100] Creating Layer res5a_branch2b_relu
I0428 23:58:33.002678 16364 net.cpp:444] res5a_branch2b_relu <- res5a_branch2b
I0428 23:58:33.002678 16364 net.cpp:405] res5a_branch2b_relu -> res5a_branch2b (in-place)
I0428 23:58:33.003712 16364 net.cpp:150] Setting up res5a_branch2b_relu
I0428 23:58:33.003712 16364 net.cpp:157] Top shape: 1 512 14 14 (100352)
I0428 23:58:33.003712 16364 net.cpp:165] Memory required for data: 229404684
I0428 23:58:33.003712 16364 layer_factory.hpp:77] Creating layer res5a_branch2c
I0428 23:58:33.003712 16364 net.cpp:100] Creating Layer res5a_branch2c
I0428 23:58:33.003712 16364 net.cpp:444] res5a_branch2c <- res5a_branch2b
I0428 23:58:33.003712 16364 net.cpp:418] res5a_branch2c -> res5a_branch2c
I0428 23:58:33.007664 16364 net.cpp:150] Setting up res5a_branch2c
I0428 23:58:33.007664 16364 net.cpp:157] Top shape: 1 2048 14 14 (401408)
I0428 23:58:33.007664 16364 net.cpp:165] Memory required for data: 231010316
I0428 23:58:33.007664 16364 layer_factory.hpp:77] Creating layer bn5a_branch2c
I0428 23:58:33.007664 16364 net.cpp:100] Creating Layer bn5a_branch2c
I0428 23:58:33.007664 16364 net.cpp:444] bn5a_branch2c <- res5a_branch2c
I0428 23:58:33.007664 16364 net.cpp:405] bn5a_branch2c -> res5a_branch2c (in-place)
I0428 23:58:33.007664 16364 net.cpp:150] Setting up bn5a_branch2c
I0428 23:58:33.007664 16364 net.cpp:157] Top shape: 1 2048 14 14 (401408)
I0428 23:58:33.007664 16364 net.cpp:165] Memory required for data: 232615948
I0428 23:58:33.007664 16364 layer_factory.hpp:77] Creating layer scale5a_branch2c
I0428 23:58:33.007664 16364 net.cpp:100] Creating Layer scale5a_branch2c
I0428 23:58:33.007664 16364 net.cpp:444] scale5a_branch2c <- res5a_branch2c
I0428 23:58:33.007664 16364 net.cpp:405] scale5a_branch2c -> res5a_branch2c (in-place)
I0428 23:58:33.007664 16364 layer_factory.hpp:77] Creating layer scale5a_branch2c
I0428 23:58:33.007664 16364 net.cpp:150] Setting up scale5a_branch2c
I0428 23:58:33.007664 16364 net.cpp:157] Top shape: 1 2048 14 14 (401408)
I0428 23:58:33.007664 16364 net.cpp:165] Memory required for data: 234221580
I0428 23:58:33.007664 16364 layer_factory.hpp:77] Creating layer res5a
I0428 23:58:33.007664 16364 net.cpp:100] Creating Layer res5a
I0428 23:58:33.007664 16364 net.cpp:444] res5a <- res5a_branch1
I0428 23:58:33.007664 16364 net.cpp:444] res5a <- res5a_branch2c
I0428 23:58:33.007664 16364 net.cpp:418] res5a -> res5a
I0428 23:58:33.007664 16364 net.cpp:150] Setting up res5a
I0428 23:58:33.007664 16364 net.cpp:157] Top shape: 1 2048 14 14 (401408)
I0428 23:58:33.007664 16364 net.cpp:165] Memory required for data: 235827212
I0428 23:58:33.007664 16364 layer_factory.hpp:77] Creating layer res5a_relu
I0428 23:58:33.007664 16364 net.cpp:100] Creating Layer res5a_relu
I0428 23:58:33.007664 16364 net.cpp:444] res5a_relu <- res5a
I0428 23:58:33.007664 16364 net.cpp:405] res5a_relu -> res5a (in-place)
I0428 23:58:33.009658 16364 net.cpp:150] Setting up res5a_relu
I0428 23:58:33.009658 16364 net.cpp:157] Top shape: 1 2048 14 14 (401408)
I0428 23:58:33.009658 16364 net.cpp:165] Memory required for data: 237432844
I0428 23:58:33.009658 16364 layer_factory.hpp:77] Creating layer res5a_res5a_relu_0_split
I0428 23:58:33.009658 16364 net.cpp:100] Creating Layer res5a_res5a_relu_0_split
I0428 23:58:33.009658 16364 net.cpp:444] res5a_res5a_relu_0_split <- res5a
I0428 23:58:33.009658 16364 net.cpp:418] res5a_res5a_relu_0_split -> res5a_res5a_relu_0_split_0
I0428 23:58:33.009658 16364 net.cpp:418] res5a_res5a_relu_0_split -> res5a_res5a_relu_0_split_1
I0428 23:58:33.009658 16364 net.cpp:150] Setting up res5a_res5a_relu_0_split
I0428 23:58:33.009658 16364 net.cpp:157] Top shape: 1 2048 14 14 (401408)
I0428 23:58:33.009658 16364 net.cpp:157] Top shape: 1 2048 14 14 (401408)
I0428 23:58:33.009658 16364 net.cpp:165] Memory required for data: 240644108
I0428 23:58:33.009658 16364 layer_factory.hpp:77] Creating layer res5b_branch2a
I0428 23:58:33.009658 16364 net.cpp:100] Creating Layer res5b_branch2a
I0428 23:58:33.009658 16364 net.cpp:444] res5b_branch2a <- res5a_res5a_relu_0_split_0
I0428 23:58:33.009658 16364 net.cpp:418] res5b_branch2a -> res5b_branch2a
I0428 23:58:33.012651 16364 net.cpp:150] Setting up res5b_branch2a
I0428 23:58:33.012651 16364 net.cpp:157] Top shape: 1 512 14 14 (100352)
I0428 23:58:33.012651 16364 net.cpp:165] Memory required for data: 241045516
I0428 23:58:33.012651 16364 layer_factory.hpp:77] Creating layer bn5b_branch2a
I0428 23:58:33.012651 16364 net.cpp:100] Creating Layer bn5b_branch2a
I0428 23:58:33.012651 16364 net.cpp:444] bn5b_branch2a <- res5b_branch2a
I0428 23:58:33.012651 16364 net.cpp:405] bn5b_branch2a -> res5b_branch2a (in-place)
I0428 23:58:33.012651 16364 net.cpp:150] Setting up bn5b_branch2a
I0428 23:58:33.012651 16364 net.cpp:157] Top shape: 1 512 14 14 (100352)
I0428 23:58:33.012651 16364 net.cpp:165] Memory required for data: 241446924
I0428 23:58:33.012651 16364 layer_factory.hpp:77] Creating layer scale5b_branch2a
I0428 23:58:33.012651 16364 net.cpp:100] Creating Layer scale5b_branch2a
I0428 23:58:33.012651 16364 net.cpp:444] scale5b_branch2a <- res5b_branch2a
I0428 23:58:33.012651 16364 net.cpp:405] scale5b_branch2a -> res5b_branch2a (in-place)
I0428 23:58:33.012651 16364 layer_factory.hpp:77] Creating layer scale5b_branch2a
I0428 23:58:33.012651 16364 net.cpp:150] Setting up scale5b_branch2a
I0428 23:58:33.012651 16364 net.cpp:157] Top shape: 1 512 14 14 (100352)
I0428 23:58:33.012651 16364 net.cpp:165] Memory required for data: 241848332
I0428 23:58:33.012651 16364 layer_factory.hpp:77] Creating layer res5b_branch2a_relu
I0428 23:58:33.012651 16364 net.cpp:100] Creating Layer res5b_branch2a_relu
I0428 23:58:33.012651 16364 net.cpp:444] res5b_branch2a_relu <- res5b_branch2a
I0428 23:58:33.012651 16364 net.cpp:405] res5b_branch2a_relu -> res5b_branch2a (in-place)
I0428 23:58:33.013648 16364 net.cpp:150] Setting up res5b_branch2a_relu
I0428 23:58:33.013648 16364 net.cpp:157] Top shape: 1 512 14 14 (100352)
I0428 23:58:33.013648 16364 net.cpp:165] Memory required for data: 242249740
I0428 23:58:33.013648 16364 layer_factory.hpp:77] Creating layer res5b_branch2b
I0428 23:58:33.013648 16364 net.cpp:100] Creating Layer res5b_branch2b
I0428 23:58:33.013648 16364 net.cpp:444] res5b_branch2b <- res5b_branch2a
I0428 23:58:33.013648 16364 net.cpp:418] res5b_branch2b -> res5b_branch2b
I0428 23:58:33.017640 16364 net.cpp:150] Setting up res5b_branch2b
I0428 23:58:33.017640 16364 net.cpp:157] Top shape: 1 512 14 14 (100352)
I0428 23:58:33.017640 16364 net.cpp:165] Memory required for data: 242651148
I0428 23:58:33.017640 16364 layer_factory.hpp:77] Creating layer bn5b_branch2b
I0428 23:58:33.017640 16364 net.cpp:100] Creating Layer bn5b_branch2b
I0428 23:58:33.017640 16364 net.cpp:444] bn5b_branch2b <- res5b_branch2b
I0428 23:58:33.017640 16364 net.cpp:405] bn5b_branch2b -> res5b_branch2b (in-place)
I0428 23:58:33.018637 16364 net.cpp:150] Setting up bn5b_branch2b
I0428 23:58:33.018637 16364 net.cpp:157] Top shape: 1 512 14 14 (100352)
I0428 23:58:33.018637 16364 net.cpp:165] Memory required for data: 243052556
I0428 23:58:33.018637 16364 layer_factory.hpp:77] Creating layer scale5b_branch2b
I0428 23:58:33.018637 16364 net.cpp:100] Creating Layer scale5b_branch2b
I0428 23:58:33.018637 16364 net.cpp:444] scale5b_branch2b <- res5b_branch2b
I0428 23:58:33.018637 16364 net.cpp:405] scale5b_branch2b -> res5b_branch2b (in-place)
I0428 23:58:33.018637 16364 layer_factory.hpp:77] Creating layer scale5b_branch2b
I0428 23:58:33.018637 16364 net.cpp:150] Setting up scale5b_branch2b
I0428 23:58:33.018637 16364 net.cpp:157] Top shape: 1 512 14 14 (100352)
I0428 23:58:33.018637 16364 net.cpp:165] Memory required for data: 243453964
I0428 23:58:33.018637 16364 layer_factory.hpp:77] Creating layer res5b_branch2b_relu
I0428 23:58:33.018637 16364 net.cpp:100] Creating Layer res5b_branch2b_relu
I0428 23:58:33.018637 16364 net.cpp:444] res5b_branch2b_relu <- res5b_branch2b
I0428 23:58:33.018637 16364 net.cpp:405] res5b_branch2b_relu -> res5b_branch2b (in-place)
I0428 23:58:33.018637 16364 net.cpp:150] Setting up res5b_branch2b_relu
I0428 23:58:33.018637 16364 net.cpp:157] Top shape: 1 512 14 14 (100352)
I0428 23:58:33.018637 16364 net.cpp:165] Memory required for data: 243855372
I0428 23:58:33.018637 16364 layer_factory.hpp:77] Creating layer res5b_branch2c
I0428 23:58:33.018637 16364 net.cpp:100] Creating Layer res5b_branch2c
I0428 23:58:33.018637 16364 net.cpp:444] res5b_branch2c <- res5b_branch2b
I0428 23:58:33.018637 16364 net.cpp:418] res5b_branch2c -> res5b_branch2c
I0428 23:58:33.023622 16364 net.cpp:150] Setting up res5b_branch2c
I0428 23:58:33.023622 16364 net.cpp:157] Top shape: 1 2048 14 14 (401408)
I0428 23:58:33.023622 16364 net.cpp:165] Memory required for data: 245461004
I0428 23:58:33.023622 16364 layer_factory.hpp:77] Creating layer bn5b_branch2c
I0428 23:58:33.023622 16364 net.cpp:100] Creating Layer bn5b_branch2c
I0428 23:58:33.023622 16364 net.cpp:444] bn5b_branch2c <- res5b_branch2c
I0428 23:58:33.023622 16364 net.cpp:405] bn5b_branch2c -> res5b_branch2c (in-place)
I0428 23:58:33.023622 16364 net.cpp:150] Setting up bn5b_branch2c
I0428 23:58:33.023622 16364 net.cpp:157] Top shape: 1 2048 14 14 (401408)
I0428 23:58:33.023622 16364 net.cpp:165] Memory required for data: 247066636
I0428 23:58:33.023622 16364 layer_factory.hpp:77] Creating layer scale5b_branch2c
I0428 23:58:33.023622 16364 net.cpp:100] Creating Layer scale5b_branch2c
I0428 23:58:33.023622 16364 net.cpp:444] scale5b_branch2c <- res5b_branch2c
I0428 23:58:33.023622 16364 net.cpp:405] scale5b_branch2c -> res5b_branch2c (in-place)
I0428 23:58:33.023622 16364 layer_factory.hpp:77] Creating layer scale5b_branch2c
I0428 23:58:33.023622 16364 net.cpp:150] Setting up scale5b_branch2c
I0428 23:58:33.023622 16364 net.cpp:157] Top shape: 1 2048 14 14 (401408)
I0428 23:58:33.023622 16364 net.cpp:165] Memory required for data: 248672268
I0428 23:58:33.023622 16364 layer_factory.hpp:77] Creating layer res5b
I0428 23:58:33.023622 16364 net.cpp:100] Creating Layer res5b
I0428 23:58:33.023622 16364 net.cpp:444] res5b <- res5a_res5a_relu_0_split_1
I0428 23:58:33.023622 16364 net.cpp:444] res5b <- res5b_branch2c
I0428 23:58:33.023622 16364 net.cpp:418] res5b -> res5b
I0428 23:58:33.023622 16364 net.cpp:150] Setting up res5b
I0428 23:58:33.023622 16364 net.cpp:157] Top shape: 1 2048 14 14 (401408)
I0428 23:58:33.023622 16364 net.cpp:165] Memory required for data: 250277900
I0428 23:58:33.023622 16364 layer_factory.hpp:77] Creating layer res5b_relu
I0428 23:58:33.023622 16364 net.cpp:100] Creating Layer res5b_relu
I0428 23:58:33.023622 16364 net.cpp:444] res5b_relu <- res5b
I0428 23:58:33.023622 16364 net.cpp:405] res5b_relu -> res5b (in-place)
I0428 23:58:33.023622 16364 net.cpp:150] Setting up res5b_relu
I0428 23:58:33.023622 16364 net.cpp:157] Top shape: 1 2048 14 14 (401408)
I0428 23:58:33.023622 16364 net.cpp:165] Memory required for data: 251883532
I0428 23:58:33.023622 16364 layer_factory.hpp:77] Creating layer res5b_res5b_relu_0_split
I0428 23:58:33.023622 16364 net.cpp:100] Creating Layer res5b_res5b_relu_0_split
I0428 23:58:33.023622 16364 net.cpp:444] res5b_res5b_relu_0_split <- res5b
I0428 23:58:33.023622 16364 net.cpp:418] res5b_res5b_relu_0_split -> res5b_res5b_relu_0_split_0
I0428 23:58:33.023622 16364 net.cpp:418] res5b_res5b_relu_0_split -> res5b_res5b_relu_0_split_1
I0428 23:58:33.023622 16364 net.cpp:150] Setting up res5b_res5b_relu_0_split
I0428 23:58:33.023622 16364 net.cpp:157] Top shape: 1 2048 14 14 (401408)
I0428 23:58:33.023622 16364 net.cpp:157] Top shape: 1 2048 14 14 (401408)
I0428 23:58:33.023622 16364 net.cpp:165] Memory required for data: 255094796
I0428 23:58:33.023622 16364 layer_factory.hpp:77] Creating layer res5c_branch2a
I0428 23:58:33.023622 16364 net.cpp:100] Creating Layer res5c_branch2a
I0428 23:58:33.023622 16364 net.cpp:444] res5c_branch2a <- res5b_res5b_relu_0_split_0
I0428 23:58:33.023622 16364 net.cpp:418] res5c_branch2a -> res5c_branch2a
I0428 23:58:33.027616 16364 net.cpp:150] Setting up res5c_branch2a
I0428 23:58:33.027616 16364 net.cpp:157] Top shape: 1 512 14 14 (100352)
I0428 23:58:33.027616 16364 net.cpp:165] Memory required for data: 255496204
I0428 23:58:33.027616 16364 layer_factory.hpp:77] Creating layer bn5c_branch2a
I0428 23:58:33.027616 16364 net.cpp:100] Creating Layer bn5c_branch2a
I0428 23:58:33.027616 16364 net.cpp:444] bn5c_branch2a <- res5c_branch2a
I0428 23:58:33.027616 16364 net.cpp:405] bn5c_branch2a -> res5c_branch2a (in-place)
I0428 23:58:33.027616 16364 net.cpp:150] Setting up bn5c_branch2a
I0428 23:58:33.027616 16364 net.cpp:157] Top shape: 1 512 14 14 (100352)
I0428 23:58:33.027616 16364 net.cpp:165] Memory required for data: 255897612
I0428 23:58:33.027616 16364 layer_factory.hpp:77] Creating layer scale5c_branch2a
I0428 23:58:33.027616 16364 net.cpp:100] Creating Layer scale5c_branch2a
I0428 23:58:33.027616 16364 net.cpp:444] scale5c_branch2a <- res5c_branch2a
I0428 23:58:33.027616 16364 net.cpp:405] scale5c_branch2a -> res5c_branch2a (in-place)
I0428 23:58:33.027616 16364 layer_factory.hpp:77] Creating layer scale5c_branch2a
I0428 23:58:33.027616 16364 net.cpp:150] Setting up scale5c_branch2a
I0428 23:58:33.027616 16364 net.cpp:157] Top shape: 1 512 14 14 (100352)
I0428 23:58:33.027616 16364 net.cpp:165] Memory required for data: 256299020
I0428 23:58:33.027616 16364 layer_factory.hpp:77] Creating layer res5c_branch2a_relu
I0428 23:58:33.027616 16364 net.cpp:100] Creating Layer res5c_branch2a_relu
I0428 23:58:33.027616 16364 net.cpp:444] res5c_branch2a_relu <- res5c_branch2a
I0428 23:58:33.027616 16364 net.cpp:405] res5c_branch2a_relu -> res5c_branch2a (in-place)
I0428 23:58:33.027616 16364 net.cpp:150] Setting up res5c_branch2a_relu
I0428 23:58:33.027616 16364 net.cpp:157] Top shape: 1 512 14 14 (100352)
I0428 23:58:33.027616 16364 net.cpp:165] Memory required for data: 256700428
I0428 23:58:33.027616 16364 layer_factory.hpp:77] Creating layer res5c_branch2b
I0428 23:58:33.027616 16364 net.cpp:100] Creating Layer res5c_branch2b
I0428 23:58:33.027616 16364 net.cpp:444] res5c_branch2b <- res5c_branch2a
I0428 23:58:33.027616 16364 net.cpp:418] res5c_branch2b -> res5c_branch2b
I0428 23:58:33.032625 16364 net.cpp:150] Setting up res5c_branch2b
I0428 23:58:33.032625 16364 net.cpp:157] Top shape: 1 512 14 14 (100352)
I0428 23:58:33.032625 16364 net.cpp:165] Memory required for data: 257101836
I0428 23:58:33.032625 16364 layer_factory.hpp:77] Creating layer bn5c_branch2b
I0428 23:58:33.032625 16364 net.cpp:100] Creating Layer bn5c_branch2b
I0428 23:58:33.032625 16364 net.cpp:444] bn5c_branch2b <- res5c_branch2b
I0428 23:58:33.032625 16364 net.cpp:405] bn5c_branch2b -> res5c_branch2b (in-place)
I0428 23:58:33.032625 16364 net.cpp:150] Setting up bn5c_branch2b
I0428 23:58:33.032625 16364 net.cpp:157] Top shape: 1 512 14 14 (100352)
I0428 23:58:33.032625 16364 net.cpp:165] Memory required for data: 257503244
I0428 23:58:33.032625 16364 layer_factory.hpp:77] Creating layer scale5c_branch2b
I0428 23:58:33.032625 16364 net.cpp:100] Creating Layer scale5c_branch2b
I0428 23:58:33.032625 16364 net.cpp:444] scale5c_branch2b <- res5c_branch2b
I0428 23:58:33.032625 16364 net.cpp:405] scale5c_branch2b -> res5c_branch2b (in-place)
I0428 23:58:33.032625 16364 layer_factory.hpp:77] Creating layer scale5c_branch2b
I0428 23:58:33.032625 16364 net.cpp:150] Setting up scale5c_branch2b
I0428 23:58:33.032625 16364 net.cpp:157] Top shape: 1 512 14 14 (100352)
I0428 23:58:33.032625 16364 net.cpp:165] Memory required for data: 257904652
I0428 23:58:33.032625 16364 layer_factory.hpp:77] Creating layer res5c_branch2b_relu
I0428 23:58:33.032625 16364 net.cpp:100] Creating Layer res5c_branch2b_relu
I0428 23:58:33.032625 16364 net.cpp:444] res5c_branch2b_relu <- res5c_branch2b
I0428 23:58:33.032625 16364 net.cpp:405] res5c_branch2b_relu -> res5c_branch2b (in-place)
I0428 23:58:33.033596 16364 net.cpp:150] Setting up res5c_branch2b_relu
I0428 23:58:33.033596 16364 net.cpp:157] Top shape: 1 512 14 14 (100352)
I0428 23:58:33.033596 16364 net.cpp:165] Memory required for data: 258306060
I0428 23:58:33.033596 16364 layer_factory.hpp:77] Creating layer res5c_branch2c
I0428 23:58:33.033596 16364 net.cpp:100] Creating Layer res5c_branch2c
I0428 23:58:33.033596 16364 net.cpp:444] res5c_branch2c <- res5c_branch2b
I0428 23:58:33.033596 16364 net.cpp:418] res5c_branch2c -> res5c_branch2c
I0428 23:58:33.038605 16364 net.cpp:150] Setting up res5c_branch2c
I0428 23:58:33.038605 16364 net.cpp:157] Top shape: 1 2048 14 14 (401408)
I0428 23:58:33.038605 16364 net.cpp:165] Memory required for data: 259911692
I0428 23:58:33.038605 16364 layer_factory.hpp:77] Creating layer bn5c_branch2c
I0428 23:58:33.038605 16364 net.cpp:100] Creating Layer bn5c_branch2c
I0428 23:58:33.038605 16364 net.cpp:444] bn5c_branch2c <- res5c_branch2c
I0428 23:58:33.038605 16364 net.cpp:405] bn5c_branch2c -> res5c_branch2c (in-place)
I0428 23:58:33.038605 16364 net.cpp:150] Setting up bn5c_branch2c
I0428 23:58:33.038605 16364 net.cpp:157] Top shape: 1 2048 14 14 (401408)
I0428 23:58:33.038605 16364 net.cpp:165] Memory required for data: 261517324
I0428 23:58:33.038605 16364 layer_factory.hpp:77] Creating layer scale5c_branch2c
I0428 23:58:33.038605 16364 net.cpp:100] Creating Layer scale5c_branch2c
I0428 23:58:33.038605 16364 net.cpp:444] scale5c_branch2c <- res5c_branch2c
I0428 23:58:33.038605 16364 net.cpp:405] scale5c_branch2c -> res5c_branch2c (in-place)
I0428 23:58:33.038605 16364 layer_factory.hpp:77] Creating layer scale5c_branch2c
I0428 23:58:33.038605 16364 net.cpp:150] Setting up scale5c_branch2c
I0428 23:58:33.038605 16364 net.cpp:157] Top shape: 1 2048 14 14 (401408)
I0428 23:58:33.038605 16364 net.cpp:165] Memory required for data: 263122956
I0428 23:58:33.038605 16364 layer_factory.hpp:77] Creating layer res5c
I0428 23:58:33.038605 16364 net.cpp:100] Creating Layer res5c
I0428 23:58:33.038605 16364 net.cpp:444] res5c <- res5b_res5b_relu_0_split_1
I0428 23:58:33.038605 16364 net.cpp:444] res5c <- res5c_branch2c
I0428 23:58:33.038605 16364 net.cpp:418] res5c -> res5c
I0428 23:58:33.038605 16364 net.cpp:150] Setting up res5c
I0428 23:58:33.038605 16364 net.cpp:157] Top shape: 1 2048 14 14 (401408)
I0428 23:58:33.038605 16364 net.cpp:165] Memory required for data: 264728588
I0428 23:58:33.038605 16364 layer_factory.hpp:77] Creating layer res5c_relu
I0428 23:58:33.038605 16364 net.cpp:100] Creating Layer res5c_relu
I0428 23:58:33.038605 16364 net.cpp:444] res5c_relu <- res5c
I0428 23:58:33.038605 16364 net.cpp:405] res5c_relu -> res5c (in-place)
I0428 23:58:33.038605 16364 net.cpp:150] Setting up res5c_relu
I0428 23:58:33.038605 16364 net.cpp:157] Top shape: 1 2048 14 14 (401408)
I0428 23:58:33.038605 16364 net.cpp:165] Memory required for data: 266334220
I0428 23:58:33.038605 16364 layer_factory.hpp:77] Creating layer rpn_conv/3x3
I0428 23:58:33.038605 16364 net.cpp:100] Creating Layer rpn_conv/3x3
I0428 23:58:33.038605 16364 net.cpp:444] rpn_conv/3x3 <- res4f_res4f_relu_0_split_2
I0428 23:58:33.038605 16364 net.cpp:418] rpn_conv/3x3 -> rpn/output
I0428 23:58:33.046561 16364 common.cpp:36] System entropy source not available, using fallback algorithm to generate seed instead.
I0428 23:58:33.095470 16364 net.cpp:150] Setting up rpn_conv/3x3
I0428 23:58:33.095470 16364 net.cpp:157] Top shape: 1 512 14 14 (100352)
I0428 23:58:33.095470 16364 net.cpp:165] Memory required for data: 266735628
I0428 23:58:33.095470 16364 layer_factory.hpp:77] Creating layer rpn_relu/3x3
I0428 23:58:33.095470 16364 net.cpp:100] Creating Layer rpn_relu/3x3
I0428 23:58:33.095470 16364 net.cpp:444] rpn_relu/3x3 <- rpn/output
I0428 23:58:33.095470 16364 net.cpp:405] rpn_relu/3x3 -> rpn/output (in-place)
I0428 23:58:33.096453 16364 net.cpp:150] Setting up rpn_relu/3x3
I0428 23:58:33.096453 16364 net.cpp:157] Top shape: 1 512 14 14 (100352)
I0428 23:58:33.096453 16364 net.cpp:165] Memory required for data: 267137036
I0428 23:58:33.096453 16364 layer_factory.hpp:77] Creating layer rpn/output_rpn_relu/3x3_0_split
I0428 23:58:33.096453 16364 net.cpp:100] Creating Layer rpn/output_rpn_relu/3x3_0_split
I0428 23:58:33.096453 16364 net.cpp:444] rpn/output_rpn_relu/3x3_0_split <- rpn/output
I0428 23:58:33.096453 16364 net.cpp:418] rpn/output_rpn_relu/3x3_0_split -> rpn/output_rpn_relu/3x3_0_split_0
I0428 23:58:33.096453 16364 net.cpp:418] rpn/output_rpn_relu/3x3_0_split -> rpn/output_rpn_relu/3x3_0_split_1
I0428 23:58:33.096453 16364 net.cpp:150] Setting up rpn/output_rpn_relu/3x3_0_split
I0428 23:58:33.096453 16364 net.cpp:157] Top shape: 1 512 14 14 (100352)
I0428 23:58:33.096453 16364 net.cpp:157] Top shape: 1 512 14 14 (100352)
I0428 23:58:33.096453 16364 net.cpp:165] Memory required for data: 267939852
I0428 23:58:33.096453 16364 layer_factory.hpp:77] Creating layer rpn_cls_score
I0428 23:58:33.096453 16364 net.cpp:100] Creating Layer rpn_cls_score
I0428 23:58:33.096453 16364 net.cpp:444] rpn_cls_score <- rpn/output_rpn_relu/3x3_0_split_0
I0428 23:58:33.096453 16364 net.cpp:418] rpn_cls_score -> rpn_cls_score
I0428 23:58:33.097434 16364 net.cpp:150] Setting up rpn_cls_score
I0428 23:58:33.097434 16364 net.cpp:157] Top shape: 1 18 14 14 (3528)
I0428 23:58:33.097434 16364 net.cpp:165] Memory required for data: 267953964
I0428 23:58:33.097434 16364 layer_factory.hpp:77] Creating layer rpn_bbox_pred
I0428 23:58:33.097434 16364 net.cpp:100] Creating Layer rpn_bbox_pred
I0428 23:58:33.097434 16364 net.cpp:444] rpn_bbox_pred <- rpn/output_rpn_relu/3x3_0_split_1
I0428 23:58:33.097434 16364 net.cpp:418] rpn_bbox_pred -> rpn_bbox_pred
I0428 23:58:33.099418 16364 net.cpp:150] Setting up rpn_bbox_pred
I0428 23:58:33.099418 16364 net.cpp:157] Top shape: 1 36 14 14 (7056)
I0428 23:58:33.099418 16364 net.cpp:165] Memory required for data: 267982188
I0428 23:58:33.099418 16364 layer_factory.hpp:77] Creating layer rpn_cls_score_reshape
I0428 23:58:33.099418 16364 net.cpp:100] Creating Layer rpn_cls_score_reshape
I0428 23:58:33.099418 16364 net.cpp:444] rpn_cls_score_reshape <- rpn_cls_score
I0428 23:58:33.099418 16364 net.cpp:418] rpn_cls_score_reshape -> rpn_cls_score_reshape
I0428 23:58:33.099418 16364 net.cpp:150] Setting up rpn_cls_score_reshape
I0428 23:58:33.099418 16364 net.cpp:157] Top shape: 1 2 126 14 (3528)
I0428 23:58:33.099418 16364 net.cpp:165] Memory required for data: 267996300
I0428 23:58:33.099418 16364 layer_factory.hpp:77] Creating layer rpn_cls_prob
I0428 23:58:33.099418 16364 net.cpp:100] Creating Layer rpn_cls_prob
I0428 23:58:33.099418 16364 net.cpp:444] rpn_cls_prob <- rpn_cls_score_reshape
I0428 23:58:33.099418 16364 net.cpp:418] rpn_cls_prob -> rpn_cls_prob
I0428 23:58:33.099418 16364 net.cpp:150] Setting up rpn_cls_prob
I0428 23:58:33.099418 16364 net.cpp:157] Top shape: 1 2 126 14 (3528)
I0428 23:58:33.099418 16364 net.cpp:165] Memory required for data: 268010412
I0428 23:58:33.099418 16364 layer_factory.hpp:77] Creating layer rpn_cls_prob_reshape
I0428 23:58:33.099418 16364 net.cpp:100] Creating Layer rpn_cls_prob_reshape
I0428 23:58:33.099418 16364 net.cpp:444] rpn_cls_prob_reshape <- rpn_cls_prob
I0428 23:58:33.099418 16364 net.cpp:418] rpn_cls_prob_reshape -> rpn_cls_prob_reshape
I0428 23:58:33.099418 16364 net.cpp:150] Setting up rpn_cls_prob_reshape
I0428 23:58:33.099418 16364 net.cpp:157] Top shape: 1 18 14 14 (3528)
I0428 23:58:33.099418 16364 net.cpp:165] Memory required for data: 268024524
I0428 23:58:33.099418 16364 layer_factory.hpp:77] Creating layer proposal
I0428 23:58:33.102411 16364 net.cpp:100] Creating Layer proposal
I0428 23:58:33.102411 16364 net.cpp:444] proposal <- rpn_cls_prob_reshape
I0428 23:58:33.102411 16364 net.cpp:444] proposal <- rpn_bbox_pred
I0428 23:58:33.102411 16364 net.cpp:444] proposal <- im_info
I0428 23:58:33.102411 16364 net.cpp:418] proposal -> rois
I0428 23:58:33.103407 16364 net.cpp:150] Setting up proposal
I0428 23:58:33.103407 16364 net.cpp:157] Top shape: 1 5 (5)
I0428 23:58:33.103407 16364 net.cpp:165] Memory required for data: 268024544
I0428 23:58:33.103407 16364 layer_factory.hpp:77] Creating layer rois_proposal_0_split
I0428 23:58:33.103407 16364 net.cpp:100] Creating Layer rois_proposal_0_split
I0428 23:58:33.103407 16364 net.cpp:444] rois_proposal_0_split <- rois
I0428 23:58:33.103407 16364 net.cpp:418] rois_proposal_0_split -> rois_proposal_0_split_0
I0428 23:58:33.103407 16364 net.cpp:418] rois_proposal_0_split -> rois_proposal_0_split_1
I0428 23:58:33.103407 16364 net.cpp:150] Setting up rois_proposal_0_split
I0428 23:58:33.103407 16364 net.cpp:157] Top shape: 1 5 (5)
I0428 23:58:33.103407 16364 net.cpp:157] Top shape: 1 5 (5)
I0428 23:58:33.103407 16364 net.cpp:165] Memory required for data: 268024584
I0428 23:58:33.103407 16364 layer_factory.hpp:77] Creating layer conv_new_1
I0428 23:58:33.103407 16364 net.cpp:100] Creating Layer conv_new_1
I0428 23:58:33.103407 16364 net.cpp:444] conv_new_1 <- res5c
I0428 23:58:33.103407 16364 net.cpp:418] conv_new_1 -> conv_new_1
I0428 23:58:33.128368 16364 net.cpp:150] Setting up conv_new_1
I0428 23:58:33.128368 16364 net.cpp:157] Top shape: 1 1024 14 14 (200704)
I0428 23:58:33.128368 16364 net.cpp:165] Memory required for data: 268827400
I0428 23:58:33.128368 16364 layer_factory.hpp:77] Creating layer conv_new_1_relu
I0428 23:58:33.128368 16364 net.cpp:100] Creating Layer conv_new_1_relu
I0428 23:58:33.128368 16364 net.cpp:444] conv_new_1_relu <- conv_new_1
I0428 23:58:33.128368 16364 net.cpp:405] conv_new_1_relu -> conv_new_1 (in-place)
I0428 23:58:33.129365 16364 net.cpp:150] Setting up conv_new_1_relu
I0428 23:58:33.129365 16364 net.cpp:157] Top shape: 1 1024 14 14 (200704)
I0428 23:58:33.129365 16364 net.cpp:165] Memory required for data: 269630216
I0428 23:58:33.129365 16364 layer_factory.hpp:77] Creating layer conv_new_1_conv_new_1_relu_0_split
I0428 23:58:33.129365 16364 net.cpp:100] Creating Layer conv_new_1_conv_new_1_relu_0_split
I0428 23:58:33.129365 16364 net.cpp:444] conv_new_1_conv_new_1_relu_0_split <- conv_new_1
I0428 23:58:33.129365 16364 net.cpp:418] conv_new_1_conv_new_1_relu_0_split -> conv_new_1_conv_new_1_relu_0_split_0
I0428 23:58:33.129365 16364 net.cpp:418] conv_new_1_conv_new_1_relu_0_split -> conv_new_1_conv_new_1_relu_0_split_1
I0428 23:58:33.129365 16364 net.cpp:150] Setting up conv_new_1_conv_new_1_relu_0_split
I0428 23:58:33.129365 16364 net.cpp:157] Top shape: 1 1024 14 14 (200704)
I0428 23:58:33.129365 16364 net.cpp:157] Top shape: 1 1024 14 14 (200704)
I0428 23:58:33.129365 16364 net.cpp:165] Memory required for data: 271235848
I0428 23:58:33.129365 16364 layer_factory.hpp:77] Creating layer rfcn_cls
I0428 23:58:33.129365 16364 net.cpp:100] Creating Layer rfcn_cls
I0428 23:58:33.129365 16364 net.cpp:444] rfcn_cls <- conv_new_1_conv_new_1_relu_0_split_0
I0428 23:58:33.129365 16364 net.cpp:418] rfcn_cls -> rfcn_cls
I0428 23:58:33.143301 16364 net.cpp:150] Setting up rfcn_cls
I0428 23:58:33.143301 16364 net.cpp:157] Top shape: 1 1029 14 14 (201684)
I0428 23:58:33.143301 16364 net.cpp:165] Memory required for data: 272042584
I0428 23:58:33.143301 16364 layer_factory.hpp:77] Creating layer rfcn_bbox
I0428 23:58:33.143301 16364 net.cpp:100] Creating Layer rfcn_bbox
I0428 23:58:33.143301 16364 net.cpp:444] rfcn_bbox <- conv_new_1_conv_new_1_relu_0_split_1
I0428 23:58:33.143301 16364 net.cpp:418] rfcn_bbox -> rfcn_bbox
I0428 23:58:33.150311 16364 net.cpp:150] Setting up rfcn_bbox
I0428 23:58:33.150311 16364 net.cpp:157] Top shape: 1 392 14 14 (76832)
I0428 23:58:33.150311 16364 net.cpp:165] Memory required for data: 272349912
I0428 23:58:33.150311 16364 layer_factory.hpp:77] Creating layer psroipooled_cls_rois
I0428 23:58:33.150311 16364 net.cpp:100] Creating Layer psroipooled_cls_rois
I0428 23:58:33.150311 16364 net.cpp:444] psroipooled_cls_rois <- rfcn_cls
I0428 23:58:33.150311 16364 net.cpp:444] psroipooled_cls_rois <- rois_proposal_0_split_0
I0428 23:58:33.150311 16364 net.cpp:418] psroipooled_cls_rois -> psroipooled_cls_rois
I0428 23:58:33.150311 16364 psroi_pooling_layer.cpp:26] Spatial scale: 0.0625
I0428 23:58:33.150311 16364 net.cpp:150] Setting up psroipooled_cls_rois
I0428 23:58:33.150311 16364 net.cpp:157] Top shape: 1 21 7 7 (1029)
I0428 23:58:33.150311 16364 net.cpp:165] Memory required for data: 272354028
I0428 23:58:33.150311 16364 layer_factory.hpp:77] Creating layer ave_cls_score_rois
I0428 23:58:33.150311 16364 net.cpp:100] Creating Layer ave_cls_score_rois
I0428 23:58:33.150311 16364 net.cpp:444] ave_cls_score_rois <- psroipooled_cls_rois
I0428 23:58:33.150311 16364 net.cpp:418] ave_cls_score_rois -> cls_score
I0428 23:58:33.151280 16364 net.cpp:150] Setting up ave_cls_score_rois
I0428 23:58:33.151280 16364 net.cpp:157] Top shape: 1 21 1 1 (21)
I0428 23:58:33.151280 16364 net.cpp:165] Memory required for data: 272354112
I0428 23:58:33.151280 16364 layer_factory.hpp:77] Creating layer psroipooled_loc_rois
I0428 23:58:33.151280 16364 net.cpp:100] Creating Layer psroipooled_loc_rois
I0428 23:58:33.151280 16364 net.cpp:444] psroipooled_loc_rois <- rfcn_bbox
I0428 23:58:33.151280 16364 net.cpp:444] psroipooled_loc_rois <- rois_proposal_0_split_1
I0428 23:58:33.151280 16364 net.cpp:418] psroipooled_loc_rois -> psroipooled_loc_rois
I0428 23:58:33.151280 16364 psroi_pooling_layer.cpp:26] Spatial scale: 0.0625
I0428 23:58:33.151280 16364 net.cpp:150] Setting up psroipooled_loc_rois
I0428 23:58:33.151280 16364 net.cpp:157] Top shape: 1 8 7 7 (392)
I0428 23:58:33.151280 16364 net.cpp:165] Memory required for data: 272355680
I0428 23:58:33.151280 16364 layer_factory.hpp:77] Creating layer ave_bbox_pred_rois
I0428 23:58:33.151280 16364 net.cpp:100] Creating Layer ave_bbox_pred_rois
I0428 23:58:33.151280 16364 net.cpp:444] ave_bbox_pred_rois <- psroipooled_loc_rois
I0428 23:58:33.151280 16364 net.cpp:418] ave_bbox_pred_rois -> bbox_pred_pre
I0428 23:58:33.151280 16364 net.cpp:150] Setting up ave_bbox_pred_rois
I0428 23:58:33.151280 16364 net.cpp:157] Top shape: 1 8 1 1 (8)
I0428 23:58:33.151280 16364 net.cpp:165] Memory required for data: 272355712
I0428 23:58:33.151280 16364 layer_factory.hpp:77] Creating layer cls_prob
I0428 23:58:33.151280 16364 net.cpp:100] Creating Layer cls_prob
I0428 23:58:33.151280 16364 net.cpp:444] cls_prob <- cls_score
I0428 23:58:33.151280 16364 net.cpp:418] cls_prob -> cls_prob_pre
I0428 23:58:33.152277 16364 net.cpp:150] Setting up cls_prob
I0428 23:58:33.152277 16364 net.cpp:157] Top shape: 1 21 1 1 (21)
I0428 23:58:33.152277 16364 net.cpp:165] Memory required for data: 272355796
I0428 23:58:33.152277 16364 layer_factory.hpp:77] Creating layer cls_prob_reshape
I0428 23:58:33.152277 16364 net.cpp:100] Creating Layer cls_prob_reshape
I0428 23:58:33.152277 16364 net.cpp:444] cls_prob_reshape <- cls_prob_pre
I0428 23:58:33.152277 16364 net.cpp:418] cls_prob_reshape -> cls_prob
I0428 23:58:33.152277 16364 net.cpp:150] Setting up cls_prob_reshape
I0428 23:58:33.152277 16364 net.cpp:157] Top shape: 1 21 (21)
I0428 23:58:33.152277 16364 net.cpp:165] Memory required for data: 272355880
I0428 23:58:33.152277 16364 layer_factory.hpp:77] Creating layer bbox_pred_reshape
I0428 23:58:33.152277 16364 net.cpp:100] Creating Layer bbox_pred_reshape
I0428 23:58:33.152277 16364 net.cpp:444] bbox_pred_reshape <- bbox_pred_pre
I0428 23:58:33.152277 16364 net.cpp:418] bbox_pred_reshape -> bbox_pred
I0428 23:58:33.152277 16364 net.cpp:150] Setting up bbox_pred_reshape
I0428 23:58:33.152277 16364 net.cpp:157] Top shape: 1 8 (8)
I0428 23:58:33.152277 16364 net.cpp:165] Memory required for data: 272355912
I0428 23:58:33.152277 16364 net.cpp:228] bbox_pred_reshape does not need backward computation.
I0428 23:58:33.152277 16364 net.cpp:228] cls_prob_reshape does not need backward computation.
I0428 23:58:33.152277 16364 net.cpp:228] cls_prob does not need backward computation.
I0428 23:58:33.152277 16364 net.cpp:228] ave_bbox_pred_rois does not need backward computation.
…
